checkpoint.pth (torch_old, 344523 bytes, 7 tensors)

hidden_layers.0.weight f4 [512, 37]
0	0xbd51bb12	-0.051203795
1	0x3e98ea52	0.29866272
2	0xbe351a69	-0.17685856
3	0xbe6cc856	-0.23123297
4	0xbe528d80	-0.2056179
5	0xbdce8590	-0.10084069
6	0xbd1cd46e	-0.038288526
7	0x3ec1a3c1	0.37820247
8	0x3e2576f0	0.16158652
9	0xbe4b29a3	-0.19840102
10	0x3e86dabc	0.26338756
11	0xbe8ae1a8	-0.27125287
12	0xbce989f0	-0.028508157
13	0xbe94b038	-0.29040694
14	0xbe5249a2	-0.20535901
15	0xbea44ddc	-0.32090652
16	0xbee2e74e	-0.44317096
17	0x3f132d3f	0.57490915
18	0x3e8eac51	0.27865842
19	0xbee0cf72	-0.43908268
20	0x3e717928	0.23581374
21	0x3e83a261	0.25709823
22	0x3dc0b4ec	0.09409508
23	0x3ea75a2a	0.32685977
24	0xbd91fc52	-0.071282044
25	0xbd230803	-0.039802562
26	0x3e9cae48	0.30601716
27	0xbd8f5ea5	-0.07000474
28	0xbe54f0c5	-0.20794971
29	0xbd55fb72	-0.05224175
30	0xbd8511ae	-0.06497513
31	0xbdb90c60	-0.090355635
32	0x3d031b52	0.032008477
33	0x3e77d5f0	0.24202704
34	0xbf53bdb4	-0.8271134
35	0xbe4a5cbb	-0.19761936
36	0xbd038a81	-0.03211451
37	0xbe239eb0	-0.15978503
38	0xbdd2df5f	-0.10296511
39	0x3e883f59	0.2661083
40	0x3def067b	0.11671158
41	0xbf19348d	-0.5984581
42	0x3e0af42b	0.13569705
43	0xbe7a607e	-0.24450871
44	0xbefa872b	-0.4893125
45	0xbba495fc	-0.0050227623
46	0xbef266bc	-0.47344005
47	0x3e0883ad	0.1333148
48	0xbebb3fbe	-0.3657207
49	0x3d8c3c1c	0.068474025
50	0x3e6147a2	0.21999982
51	0xbe5c045c	-0.21486038
52	0x3cf05811	0.029338868
53	0xbdf53291	-0.119725354
54	0x3e634e20	0.22197771
55	0x3da5de05	0.080989875
56	0xbe4a001f	-0.19726609
57	0x3dd4d1c4	0.10391572
58	0xbd0929ee	-0.033487253
59	0xbed8a45c	-0.42312896
60	0xbe7959d9	-0.2435068
61	0x3eb6a635	0.3567368
62	0xbec5ace7	-0.38608477
63	0x3aaa988e	0.0013015436
64	0x3ead963e	0.33903688
65	0xbf0ba25e	-0.5454463
66	0x3db32617	0.087474994
67	0xbe8b7d1e	-0.27243894
68	0x3d60ea78	0.054911107
69	0x3e601247	0.21881972
70	0x3e8bac9f	0.27280137
71	0xbe618f00	-0.22027206
72	0x3db6997d	0.08915994
73	0xbc363198	-0.0111202225
74	0xbe171ad4	-0.14756328
75	0x3dcded37	0.10055011
76	0x3d64d165	0.055863757
77	0x3e9078ca	0.28217155
78	0x3e607e9f	0.21923302
79	0xbf6a9e75	-0.91648036
80	0xbc114e46	-0.0088687595
81	0x3eede9b9	0.4646738
82	0xbdeef98b	-0.1166869
83	0xbfd3da86	-1.6551063
84	0xbe8d97f9	-0.27655008
85	0xbc1681c6	-0.009186214
86	0x3dd69947	0.10478454
87	0xbd432428	-0.047641903
88	0x3cce7d7d	0.025206322
89	0xbdcb3da6	-0.09923868
90	0x3e2b77e4	0.16744953
91	0xbdcdc1de	-0.10046743
92	0x3e411590	0.18855882
93	0x3d9debda	0.07711001
94	0xbd919398	-0.071082294
95	0xbc91a3f3	-0.017778372
96	0xbde25729	-0.11051781
97	0xbd3d5bcb	-0.04623012
98	0xbe1744b4	-0.14772302
99	0xbf239e30	-0.6391325
100	0xbd033a26	-0.032037877
101	0x3ebc9ccd	0.3683838
102	0x3c1c19d4	0.009527642
103	0xbecc9cd7	-0.3996341
104	0xbe585130	-0.2112472
105	0xb9596777	-0.00020733276
106	0xbcb27fca	-0.02178945
107	0xbd68ee64	-0.056867972
108	0xbe46ce68	-0.19414675
109	0xbc4f7428	-0.012661971
110	0x3c584138	0.013199143
111	0xbf08fc5a	-0.5351006
112	0xbf020be9	-0.50799423
113	0x3e8dc501	0.27689365
114	0x3e6087c0	0.21926785
115	0x3d9785d4	0.073985726
116	0x3e011dfd	0.12609096
117	0x3e83a7fb	0.25714096
118	0xbf1b1307	-0.6057591
119	0xbda9d8ec	-0.08293328
120	0x3f2fa3d2	0.68609345
121	0xbe5b4bd3	-0.21415643
122	0xbe9763e3	-0.29568395
123	0x3dddecf5	0.108362116
124	0xbda43307	-0.08017545
125	0xbedfdca8	-0.43723035
126	0xbcdb343b	-0.026758304
127	0xbf189bb1	-0.59612566
128	0x3dccc851	0.09999145
129	0xbeb6cfee	-0.35705513
130	0xbdcb7928	-0.09935218
131	0xbda3538b	-0.07974919
132	0xbddf827d	-0.109135605
133	0xbe1a1f47	-0.15050994
134	0x3e849a35	0.258989
135	0xbf47c7e7	-0.780394
136	0xbef3e0b3	-0.4763237
137	0x3d27eb04	0.040995613
138	0x3dcd1c9c	0.100152224
139	0x3e3d15eb	0.18465392
140	0x3d506639	0.050878737
141	0x3da81da1	0.08208776
142	0xbe752e37	-0.23943411
143	0xbaf6b898	-0.0018823324
144	0xbe6adcf6	-0.22935852
145	0xbe7605ce	-0.24025652
146	0x3d300a4e	0.042978577
147	0x3d5abe80	0.05340433
148	0xbea4e006	-0.32202166
149	0xbeca702d	-0.39538708
150	0x3dcbf01c	0.099579066
151	0xbe1016f2	-0.14071253
152	0xbe942e86	-0.28941745
153	0x3d87c378	0.066290796
154	0x3ec2af66	0.38024443
155	0xbf75dea7	-0.96042866
156	0x3eb8be1c	0.36082542
157	0xbeb89d3e	-0.36057466
158	0x3e1c8c7a	0.15287963
159	0xbe09f72e	-0.13473198
160	0xbefcd8c6	-0.49384135
161	0xbd9c3ab7	-0.076283865
162	0xbe83c637	-0.25737163
163	0xbf1925fd	-0.5982359
164	0x3dfcc000	0.123413086
165	0x3e39395b	0.18088286
166	0xbef1072b	-0.4707578
167	0x3e3a419e	0.18189093
168	0x3e0b1f68	0.135862
169	0xbf060ad9	-0.523603
170	0x3e34c6ab	0.17653911
171	0xbf3a5b4f	-0.72795576
172	0x3eb5f944	0.35541737
173	0x3ca0fda6	0.019652199
174	0xbdd48e17	-0.10378664
175	0x3ea2e836	0.31817788
176	0xbef4532b	-0.47719702
177	0xbdea0a9a	-0.11427803
178	0x3e401281	0.18757059
179	0xbc87df7f	-0.016586063
180	0xbed175d2	-0.40910202
181	0xbcbe7576	-0.02324937
182	0x3d61fbf7	0.055171933
183	0xbc02a665	-0.007974242
184	0xbe3bf6a3	-0.18355803
185	0x3da24a68	0.07924348
186	0xbf49cc18	-0.7882705
187	0x3e24570f	0.16048835
188	0xbf427347	-0.7595715
189	0xbd797e00	-0.06091118
190	0x3de86632	0.11347617
191	0xbe83a9c0	-0.25715446
192	0xbefa92ab	-0.48940024
193	0xbef08769	-0.4697831
194	0xbf3e2448	-0.7427411
195	0xbf0827e6	-0.5318588
196	0xbcafafb1	-0.02144608
197	0xbdbb6bc0	-0.09151411
198	0x3d8f248f	0.06989395
199	0x3c66a8ba	0.0140783135
200	0xbe0d55f6	-0.13802323
201	0xbe578c24	-0.21049553
202	0x3e0bc18f	0.13648055
203	0xbf239373	-0.63896865
204	0xbf189927	-0.5960869
205	0x3d84f5b7	0.06492179
206	0xbe916b04	-0.2840196
207	0x3d942540	0.072336674
208	0xbe8c2601	-0.27372745
209	0xbf0c9cdb	-0.5492684
210	0xbe10c0b5	-0.14136012
211	0x3e154b1e	0.14579436
212	0x3e6e1913	0.23251753
213	0xbe1b7025	-0.15179498
214	0xbdd0af36	-0.10189669
215	0xbe8c48e3	-0.27399358
216	0xbf0293b1	-0.5100661
217	0x3e9f65d8	0.31132388
218	0xbd1d9aa0	-0.03847754
219	0xbe11ec63	-0.1425033
220	0xbe35fe51	-0.17772795
221	0x3df0de51	0.117611535
222	0xbdb2cf17	-0.087309055
223	0xbeba47ab	-0.36382803
224	0x3e89e800	0.26934814
225	0xbbd08051	-0.0063629528
226	0xbebbc703	-0.3667527
227	0xbea82c6a	-0.32846385
228	0xbd9e5711	-0.0773145
229	0x3e237766	0.15963516
230	0x3cfd2997	0.03090362
231	0x3d94d220	0.07266641
232	0xbe812420	-0.25222874
233	0xbea7004f	-0.32617423
234	0x3ed7893d	0.42096892
235	0x3d69f4a0	0.05711806
236	0xbe32d83d	-0.17465301
237	0x3c9fb4bc	0.01949536
238	0xbdcb1a68	-0.09917146
239	0x3deb2184	0.11481002
240	0xbe9209c1	-0.28523067
241	0x3f2836c0	0.6570854
242	0xbd4f47f3	-0.050605725
243	0xbd972eeb	-0.07381996
244	0xbe20cbd8	-0.1570276
245	0x3e88348e	0.26602596
246	0x3ec5c62b	0.38627753
247	0xbe91d066	-0.28479308
248	0x3d455f3e	0.048186533
249	0xbdce6d2f	-0.10079419
250	0x3d81d7a2	0.06339957
251	0x3e0b2425	0.13588007
252	0x3eaba8ab	0.3352712
253	0x3c951d77	0.018202526
254	0xbf7bf296	-0.9841703
255	0xbf1703a4	-0.5898993

hidden_layers.0.bias f4 [512]
0	0xbe3239d7	-0.17404877
1	0xbda69705	-0.081342734
2	0x3e07ed33	0.13274078
3	0xbe748c85	-0.23881729
4	0x3e053af7	0.13010775
5	0xbea4ded5	-0.32201257
6	0xbbfc8592	-0.0077063525
7	0xbe7b69d0	-0.24552083
8	0xbe112e82	-0.14177898
9	0x3c57704e	0.013149334
10	0xbe826744	-0.2546941
11	0x3db1eb52	0.08687462
12	0x3e2d1a93	0.16904669
13	0xbe979a75	-0.2961003
14	0xbe3a1da6	-0.18175372
15	0xbe8408f9	-0.25788096
16	0x3e07405a	0.13208142
17	0x3e1ee000	0.15515137
18	0xbe52b8d1	-0.20578314
19	0xbcdffbef	-0.027341811
20	0xbdb69c74	-0.0891656
21	0xbd07a0fb	-0.033112507
22	0xbce10ebd	-0.027472848
23	0xbe005fe2	-0.12536576
24	0xbe87231f	-0.26393983
25	0xbdf1e306	-0.118108794
26	0xbe09c7bb	-0.13455097
27	0x3e0e631b	0.13904993
28	0x3c10f347	0.008847064
29	0x3df80f67	0.12112313
30	0x3e0dbe65	0.13842161
31	0xbdcdcbab	-0.10048612
32	0xbe1c6b18	-0.15275228
33	0xbe8f4377	-0.2798116
34	0xbe543a7c	-0.20725435
35	0xbe81ca5f	-0.2534971
36	0xbe2bf253	-0.16791658
37	0xbe53f545	-0.20699032
38	0xbe01a66d	-0.12661143
39	0xbe4ae9fd	-0.19815822
40	0xbdf87f6a	-0.12133677
41	0xbdc1aff3	-0.09457388
42	0x3ce12510	0.027483493
43	0x3c4c73a3	0.012478742
44	0x3dc864f7	0.097848825
45	0xbe2089a1	-0.15677501
46	0xbe0e0d1c	-0.13872188
47	0xbda95a7e	-0.08269213
48	0xbe9491ae	-0.29017395
49	0x3cae6d51	0.02129236
50	0xbcd3af72	-0.025840495
51	0xbe3669d3	-0.17813806
52	0x3d945e45	0.07244543
53	0x3cb62a01	0.022236826
54	0xbc212a4d	-0.009836745
55	0xbe35c514	-0.1775096
56	0x3d0863ce	0.033298306
57	0xbe95ae32	-0.29234463
58	0xbe3e0d70	-0.18559813
59	0xbd884660	-0.06654048
60	0xbd82ef2d	-0.063932754
61	0x3dd7a7d2	0.10530056
62	0x3bb0160e	0.005373723
63	0xbd0ccbb0	-0.03437394
64	0x3c61ce39	0.0137820775
65	0xbe0a2794	-0.1349166
66	0x3cb7d707	0.0224414
67	0x3d8b4553	0.06800332
68	0xbe8d5669	-0.27604988
69	0xbe57ea56	-0.21085486
70	0x3e109582	0.14119533
71	0xbe33084a	-0.17483631
72	0xbd2559f6	-0.040368997
73	0x3cb359d5	0.021893421
74	0xbdb27c62	-0.087151304
75	0xbe0b2b88	-0.13590825
76	0xbe3f828d	-0.18702145
77	0xbd9ed16b	-0.07754787
78	0xbe22f2a9	-0.1591288
79	0xbe20479e	-0.1565232
80	0xbe0dde74	-0.1385439
81	0xbd09a9a8	-0.033609062
82	0xbe774458	-0.24147165
83	0xbde6aa9b	-0.11263009
84	0x3d6a3e2b	0.057188194
85	0xbca39e4f	-0.019972948
86	0xbe6ddbbb	-0.23228352
87	0x3c972eff	0.018455027
88	0xbcd24a91	-0.025670322
89	0xbe70bd04	-0.23509604
90	0xbe8677fd	-0.2626342
91	0xbe0a4881	-0.1350422
92	0xbe852e32	-0.26011807
93	0xbdad3d99	-0.084590144
94	0xbdedbb5c	-0.116080016
95	0xbd9e956b	-0.07743343
96	0xbdef012e	-0.11670147
97	0xbe78bd42	-0.24290946
98	0xbe7c028b	-0.24610345
99	0xbe865657	-0.26237747
100	0xbccac600	-0.024752617
101	0xbe3b62ef	-0.18299459
102	0xbd2d09fb	-0.042245846
103	0xbe1e6510	-0.1546824
104	0xbe8dda9d	-0.2770585
105	0xbc95f31f	-0.018304406
106	0xbe145f7e	-0.14489552
107	0xbeacb3f4	-0.33731043
108	0x3d4f4b1b	0.050608736
109	0x3e2de9e9	0.16983761
110	0xbe728b8c	-0.23686045
111	0xbe47ac2b	-0.1949927
112	0xbdc85b35	-0.09783021
113	0x3dd5a970	0.10432708
114	0xbeb6887c	-0.35651004
115	0x3c8f6bab	0.017507395
116	0xbd0b9b37	-0.03408357
117	0xbd5db3c3	-0.054126512
118	0xbdb9bcc3	-0.090692066
119	0xbe33aabd	-0.175456
120	0x3d9a593d	0.07536552
121	0xbd890b71	-0.066916354
122	0xbcf88c15	-0.030340234
123	0xbdd629d0	-0.10457194
124	0x3c8591fe	0.016304966
125	0xbe50babe	-0.20383736
126	0xbe5154c9	-0.20442499
127	0xbd6da572	-0.05801911
128	0x3cdbf67e	0.026850935
129	0xbca6a168	-0.020340636
130	0xbe816ec6	-0.25279826
131	0xbe69451f	-0.22780274
132	0xbe46592c	-0.19369954
133	0xbd350fda	-0.04420457
134	0xbe5a7f6c	-0.2133767
135	0x3c1442ec	0.009049159
136	0xbe3c2dab	-0.18376796
137	0xbc7087f0	-0.0146808475
138	0xbe6cae78	-0.2311343
139	0xbe11fce2	-0.14256623
140	0xbd402ca9	-0.04691759
141	0x3ea8e2c5	0.3298551
142	0xbe5526ad	-0.20815535
143	0x3cabeff5	0.020988444
144	0xbeabec40	-0.33578682
145	0xbea4f584	-0.32218564
146	0xbe1f63ad	-0.15565367
147	0x3d8b24af	0.06794106
148	0xbe185090	-0.14874482
149	0xba682275	-0.0008855232
150	0xbd19d17c	-0.037553295
151	0x3ceff1f9	0.029290186
152	0xbd880422	-0.06641413
153	0xbe82f19a	-0.25574952
154	0xbdeb98f5	-0.115037836
155	0xbea8761b	-0.32902607
156	0x3d4dde3b	0.050260764
157	0xbe7d1dde	-0.24718425
158	0xbde21623	-0.110393785
159	0xbe7d62f6	-0.24744782
160	0xbd83fbfd	-0.06444547
161	0xbe638564	-0.22218853
162	0xbe1bcfae	-0.15215942
163	0xbdca3f17	-0.09875315
164	0xbe3da668	-0.1852051
165	0xbdf56f21	-0.11984087
166	0xbd3e67e5	-0.0464858
167	0xbe2520af	-0.16125749
168	0xbe445028	-0.19171202
169	0x3d2f13d1	0.042743508
170	0x3b4b1329	0.0030986762
171	0xbd1eab32	-0.038737483
172	0xbe9e2309	-0.30886105
173	0xbe3360f6	-0.17517456
174	0xbe31334e	-0.17304727
175	0xbededf66	-0.43529814
176	0xbcd93d41	-0.026518466
177	0x3d43760c	0.04772
178	0xbd9df581	-0.07712842
179	0xbe78b048	-0.24285996
180	0xbcda556b	-0.026652059
181	0xbe654359	-0.22388972
182	0xbe745ab7	-0.2386273
183	0xbce8ef47	-0.028434409
184	0x3c6af711	0.014341132
185	0xbcdc376e	-0.0268819
186	0xbe57bf77	-0.21069132
187	0xbe19516e	-0.14972469
188	0xbe99dfdb	-0.300536
189	0xbe4f596e	-0.20248958
190	0x3da53b9b	0.080680095
191	0x3d8b7da3	0.06811073
192	0xbe7db8be	-0.24777505
193	0xbdae0379	-0.08496756
194	0x3ce98359	0.028505014
195	0xbd9f8941	-0.07789851
196	0xbd5932a5	-0.053026814
197	0xbea5972d	-0.323419
198	0x3d99c4bb	0.075082265
199	0xbe71d5f1	-0.23616768
200	0x3c2a2298	0.010384224
201	0xbbc4d469	-0.0060067666
202	0xbdb363e1	-0.08759285
203	0xbd527c7a	-0.05138824
204	0xbd98048a	-0.07422741
205	0xbdfdabd3	-0.123862885
206	0xbe4d0083	-0.20019726
207	0xbe881094	-0.26575148
208	0xbd198dc5	-0.037488718
209	0xbd983048	-0.07431084
210	0xbcfb3dba	-0.030669082
211	0xbd40045b	-0.046879154
212	0x3d06ec98	0.032940477
213	0x3d808174	0.06274691
214	0xbe964e7c	-0.29356754
215	0xbce31cd8	-0.027723715
216	0xbd7ffbb3	-0.0624959
217	0xbe45f91c	-0.19333309
218	0xbb8bcf1b	-0.0042666323
219	0xbe473bd2	-0.19456413
220	0xbcbb2b65	-0.02284784
221	0xbdc51ad0	-0.09624255
222	0xbd98a457	-0.0745322
223	0x3cfd00fd	0.03088426
224	0xbdf7a2b7	-0.12091582
225	0x3dad0033	0.084473036
226	0xbd3f38f5	-0.046685178
227	0xbd9b10f0	-0.0757159
228	0xbc925121	-0.01786095
229	0xbd8411d1	-0.06448711
230	0xbe702693	-0.23452215
231	0xbe6b7c5e	-0.22996661
232	0xbea0bf95	-0.31396165
233	0x3dd0420d	0.10168848
234	0xbda56f31	-0.08077849
235	0xbe2484eb	-0.16066329
236	0xbe6282b6	-0.22120175
237	0xbbdb664a	-0.0066955434
238	0xbcb82a24	-0.022481032
239	0xbe63062b	-0.22170322
240	0xbc57c878	-0.013170354
241	0xbe33076e	-0.17483303
242	0xbdd05c88	-0.10173899
243	0x3c41e820	0.011835128
244	0x3d0be9a5	0.034158368
245	0xbec4a0b2	-0.3840385
246	0x3d1b45a2	0.037908204
247	0x3ddbfdbe	0.10741757
248	0xbc55ba66	-0.013044929
249	0xbc9d1805	-0.019176492
250	0xbb675796	-0.0035300008
251	0xbdd5dcbf	-0.104424946
252	0xbcd97dcf	-0.026549248
253	0xbe8ac15f	-0.27100655
254	0xbe0b167c	-0.13582796
255	0xbe7fc734	-0.24978334

hidden_layers.1.weight f4 [128, 512]
0	0xbf0a7ac9	-0.54093605
1	0x3eac664f	0.33671805
2	0x3dbe5cf5	0.09295074
3	0x3e8cfedf	0.275382
4	0x3eafbdea	0.3432458
5	0x3e767b56	0.24070486
6	0xbe05928e	-0.13044187
7	0xbeae8909	-0.34088925
8	0x3e09ef65	0.13470228
9	0xbe0086b3	-0.12551384
10	0x3dbe274b	0.09284838
11	0xbc7352d2	-0.014851289
12	0x3eade0d3	0.3396059
13	0xbe49c4c4	-0.19703966
14	0xbecd40ed	-0.40088597
15	0xbd1f80b2	-0.038941093
16	0xbe31af99	-0.17352141
17	0xbf0ffab9	-0.5624195
18	0x3eb011f8	0.3438871
19	0xbed3ca57	-0.4136531
20	0xbef6320c	-0.48085058
21	0xbe78ec99	-0.24309005
22	0xbeeedb5b	-0.4665173
23	0xbe8260db	-0.2546452
24	0xbf0d9e27	-0.55319446
25	0x3e6e9dc3	0.23302369
26	0x3e945d7b	0.2897757
27	0xbcfafac1	-0.030637147
28	0xbe9a34b4	-0.30118334
29	0xbc69259e	-0.01423016
30	0xbe98e25f	-0.29860207
31	0xbd3d4908	-0.046212226
32	0xbe92f87e	-0.2870521
33	0x3d181338	0.037127703
34	0xbe325038	-0.17413414
35	0x3e80cf12	0.25157982
36	0xbde47c59	-0.1115653
37	0xbe86bfed	-0.26318303
38	0xbe67e1ad	-0.22644682
39	0x3e144a5c	0.14481491
40	0x3e8895db	0.2667683
41	0x3ed2ed1e	0.4119653
42	0xbf0ce385	-0.5503467
43	0xbed38a65	-0.41316524
44	0x3e65b4ac	0.22432202
45	0xbe62f2e7	-0.22162972
46	0xbde08dbb	-0.10964533
47	0xbe06919f	-0.13141488
48	0xbdf02855	-0.11726443
49	0xbe6eb064	-0.23309475
50	0xbed8e5c2	-0.4236279
51	0x3e18e52b	0.1493117
52	0xbf46fc99	-0.77729183
53	0x3ddb309b	0.1070263
54	0x3e06b211	0.13153864
55	0xbe0a54f5	-0.13508971
56	0x3dfc0b6f	0.12306868
57	0xbe9b0b66	-0.30282134
58	0x3f2426a7	0.6412148
59	0xbe9b2c71	-0.30307344
60	0x3d100440	0.035160303
61	0x3ec58aed	0.38582554
62	0xbc795bff	-0.0152196875
63	0xbebeccea	-0.37265712
64	0xbef8f368	-0.48623204
65	0xbed85498	-0.4225204
66	0xbefb1356	-0.4903819
67	0xbd84ae83	-0.06478598
68	0xbe75e5ce	-0.24013445
69	0x3d8d2991	0.06892694
70	0xbe220fa2	-0.15826276
71	0x3e1f71a7	0.15570699
72	0x3d1186a6	0.0355288
73	0xbe52e50f	-0.20595191
74	0xbee1f125	-0.4412929
75	0xbe734250	-0.23755765
76	0x3de49d0a	0.11162765
77	0xbb4142ea	-0.0029489347
78	0xbe46f7cc	-0.19430465
79	0x3e392451	0.1808026
80	0x3d7b1b56	0.061305366
81	0xbe9fb8cb	-0.31195673
82	0xbe5ebcdd	-0.21751733
83	0x3d2667a4	0.040626183
84	0x3e2dc01f	0.1696782
85	0xbe1002b6	-0.14063534
86	0x3e7885f7	0.24269854
87	0xbd7f1882	-0.06227923
88	0xbd1dcc0c	-0.038524672
89	0xbea2d433	-0.3180252
90	0xbe11d045	-0.14239605
91	0xbedb71aa	-0.42860156
92	0x3d8bff60	0.06835818
93	0x3db947e1	0.09046913
94	0xbe46b286	-0.19404039
95	0xbe9d8fba	-0.30773717
96	0xbebcdd78	-0.36887717
97	0xbe02c731	-0.12771298
98	0xbd8daf54	-0.06918207
99	0xbe0ca8a0	-0.137362
100	0xbca0e7ea	-0.019641835
101	0x3d387a77	0.045038667
102	0xbd9b003b	-0.07568403
103	0xbef49545	-0.47770134
104	0x3d4df71b	0.050284486
105	0x3dc9d33e	0.098547444
106	0xbf0941a1	-0.53615767
107	0xbe43c8ac	-0.19119519
108	0xbed1d3e2	-0.40981966
109	0x3ea3bfe2	0.31982332
110	0x3e900bf2	0.28134114
111	0xbe722819	-0.23648109
112	0xbe8351f8	-0.25648475
113	0x3e266b42	0.16251853
114	0x3e9d5164	0.3072616
115	0x3ea63f5f	0.32470223
116	0xbedef313	-0.43544826
117	0x3dbc8705	0.092054404
118	0x3e0d1576	0.13777718
119	0xbd669a5b	-0.05629955
120	0x3dc31d2f	0.09527051
121	0x3eafcee7	0.3433754
122	0x3e2416c3	0.16024308
123	0xbe7bc783	-0.24587826
124	0xbebef621	-0.37297156
125	0xbed20c03	-0.4102479
126	0x3bbf42df	0.005836829
127	0x3e975f81	0.2956505
128	0x3bfa843a	0.007645157
129	0x3d930c74	0.071801096
130	0xbc142de5	-0.009044145
131	0xbe016611	-0.12636591
132	0x3e823fc2	0.25439268
133	0xbd909a48	-0.07060677
134	0xbe7dfe6b	-0.24804084
135	0xbdaf136b	-0.085486256
136	0xbcb5d235	-0.022194961
137	0xbdb7c494	-0.08973041
138	0x3de5e23c	0.112247914
139	0xbc481f4d	-0.012214494
140	0x3d53d8e2	0.051720507
141	0xbc70060a	-0.014649877
142	0x3e90f4c2	0.28311735
143	0x3e4263f4	0.18983442
144	0xbe3aa399	-0.1822647
145	0x3d79ab31	0.060954276
146	0xbeaabfdc	-0.33349502
147	0xbe7d2bcd	-0.2472374
148	0xbe5b0650	-0.21389127
149	0x3d0fa04c	0.03506498
150	0xbe9b9078	-0.30383658
151	0x3d82885d	0.063736655
152	0x3d37be2f	0.044859108
153	0xbdca45a4	-0.09876564
154	0x3e8c4c4f	0.2740197
155	0xbd1cacee	-0.038250856
156	0xbee0cf1d	-0.43908015
157	0x3e6b4378	0.22974956
158	0x3ebfb189	0.37440136
159	0xbdd5fca1	-0.10448576
160	0x3dc284e5	0.09498004
161	0xbe30dbc7	-0.17271338
162	0xbe74fc91	-0.23924471
163	0x3e1fcdc4	0.15605837
164	0xbe60ee1b	-0.2196583
165	0xbe7b9206	-0.24567422
166	0xbf2d7a21	-0.6776448
167	0xbd5287e3	-0.051399123
168	0x3f2cb9b0	0.67470837
169	0x3e5e72fa	0.21723548
170	0xbebb00ad	-0.36523953
171	0xbe340cdf	-0.17583035
172	0xbf0ccc30	-0.54999065
173	0x3e110e7c	0.14165682
174	0x3eb8c091	0.36084417
175	0x3e0c9de9	0.13732113
176	0xbedde18c	-0.4333614
177	0x3dfb3d4e	0.12267552
178	0xbe50582d	-0.20346136
179	0x3c9aa645	0.018878112
180	0x3e8a4474	0.2700535
181	0x3e9e7a6c	0.30952775
182	0xbd5be151	-0.053681675
183	0xbe9b0a62	-0.3028136
184	0x3e85b362	0.2611342
185	0xbe35e05f	-0.17761372
186	0xbd9ba879	-0.07600493
187	0xbc8e1336	-0.017343145
188	0xbeaac5bc	-0.33353984
189	0xbeb74be5	-0.3580009
190	0xbeb0d83f	-0.34539983
191	0xbd59cc40	-0.053173304
192	0xbc5fd24b	-0.013660978
193	0xbcd3867d	-0.025820965
194	0xbd596fdb	-0.05308519
195	0x3edf5c8a	0.4362529
196	0xbeea68e7	-0.4578316
197	0xbdff4639	-0.12464566
198	0xbe796053	-0.24353151
199	0x3e8b895e	0.2725324
200	0xbe820743	-0.25396165
201	0x3d3cc4fc	0.046086296
202	0xbdbc7c24	-0.092033654
203	0xbde30b09	-0.11086089
204	0xbe506a67	-0.2035309
205	0x3e9f0fbf	0.310667
206	0x3d9a1ccf	0.07525026
207	0xbe8fefb2	-0.2811256
208	0x3e8268e5	0.25470653
209	0xbf381db3	-0.7192032
210	0xbeefd228	-0.46840024
211	0x3ea8b595	0.32951036
212	0x3f1872d0	0.5955019
213	0xbed2ccd7	-0.41171905
214	0xbe8a7223	-0.27040204
215	0x3ed129f8	0.40852332
216	0xbf0f63e9	-0.56011826
217	0xbedbbe59	-0.4291866
218	0xbf28e3bc	-0.65972495
219	0xbe20b35f	-0.15693425
220	0xbe6bdeac	-0.23034161
221	0xbe0c0e79	-0.13677396
222	0xbf304080	-0.6884842
223	0x3f034141	0.51271445
224	0x3dd5ce75	0.10439769
225	0x3e1c7b8e	0.15281507
226	0xbcf894cb	-0.030344388
227	0xbeaa64d5	-0.33280054
228	0x3d91524a	0.070957735
229	0xbe192daa	-0.14958826
230	0xbe4aae35	-0.19793017
231	0x3ddb7859	0.10716314
232	0xbdbd84b5	-0.092538275
233	0x3dc30f9f	0.09524464
234	0xbe70f8e6	-0.23532447
235	0xbe36ba73	-0.17844562
236	0x3e8c6d59	0.27427176
237	0x3e430dfb	0.19048302
238	0xbdac7e6e	-0.08422552
239	0xbeb5a9bc	-0.3548106
240	0xbe83e342	-0.2575932
241	0xbec8dd3d	-0.3923129
242	0xbe22d3e0	-0.15901136
243	0xbedfbd5d	-0.4369916
244	0xbceac848	-0.028659955
245	0x3dc837e3	0.097762845
246	0xbd9bcb8f	-0.07607185
247	0xbe0c7e26	-0.13719997
248	0x3e91c261	0.28468612
249	0x3e5044ab	0.20338695
250	0x3ece04f9	0.4023817
251	0xbe8b5233	-0.2721115
252	0x3e6461b1	0.22302891
253	0x3b8d5eee	0.004314295
254	0xbe324dad	-0.17412443
255	0xbc59480d	-0.013261807

hidden_layers.1.bias f4 [128]
0	0xbde404bf	-0.11133718
1	0x3cc31669	0.023814397
2	0xbddf44b2	-0.109017745
3	0xbe3e393c	-0.1857652
4	0xbd2130a6	-0.039353035
5	0xbd00eb6d	-0.03147452
6	0x3c36ef22	0.011165412
7	0xbe89f22d	-0.26942578
8	0xbe8979ab	-0.26850638
9	0x3d26241e	0.040561788
10	0xbba0119d	-0.004884912
11	0x3e24b517	0.16084705
12	0xbc810d69	-0.015753465
13	0xbdf69366	-0.12039833
14	0xbd281b77	-0.041041818
15	0xbd34ecd1	-0.04417116
16	0x3e2cfc7b	0.16893189
17	0xbd96bcc0	-0.0736022
18	0x3e1ebbfd	0.155014
19	0xbe24a79e	-0.16079566
20	0x3cb9c857	0.022678537
21	0xbc9154b5	-0.017740587
22	0x3a9550ea	0.0011391912
23	0xbe435bf9	-0.19078054
24	0x3d9468ca	0.072465494
25	0xbda6a798	-0.08137435
26	0xbd80a1bf	-0.062808506
27	0x3d6dba0d	0.05803876
28	0xbceb393b	-0.028713813
29	0x3c05a8f6	0.008157959
30	0x3ecba3da	0.39773446
31	0xbd7e53e4	-0.062091723
32	0xbdb8c22e	-0.09021412
33	0xbe69d960	-0.22836828
34	0xbd182dbc	-0.03715299
35	0xbda00ed5	-0.07815329
36	0xbd85c4bc	-0.06531665
37	0xbd30351b	-0.043019395
38	0xbd356818	-0.044288725
39	0xbe6391f6	-0.22223648
40	0x3d515622	0.051107533
41	0x3e62f2b7	0.22162901
42	0x3d659889	0.056053672
43	0xbdc79e04	-0.09746936
44	0x3e11dadf	0.14243649
45	0x3e86fc36	0.26364297
46	0xbdc5c430	-0.096565604
47	0x3c056719	0.008142256
48	0xbd93887b	-0.07203766
49	0xbd8a2093	-0.06744494
50	0xbd880098	-0.06640738
51	0xbda1b47b	-0.07895752
52	0xbe628241	-0.2212
53	0x3c451738	0.012029462
54	0xbf065799	-0.52477413
55	0xbd2bd616	-0.041952215
56	0xbe53c771	-0.2068155
57	0xbc39a439	-0.011330658
58	0xbd12defd	-0.03585719
59	0xbe7adf5e	-0.2449927
60	0xbd1b8626	-0.03796973
61	0xbdb17e49	-0.08666665
62	0xbce24948	-0.027622834
63	0xbcc2288c	-0.023700975
64	0xbe7c5172	-0.24640444
65	0xbd0087e9	-0.031379614
66	0x3a4b7f70	0.0007762825
67	0x3cc641b1	0.024201246
68	0xbe21b16c	-0.15790337
69	0xbd580609	-0.05274013
70	0xbe021573	-0.12703495
71	0x3f03d5da	0.51498187
72	0x3cf361e4	0.029709764
73	0xbcc45206	-0.023964893
74	0xbef8f419	-0.48623732
75	0xbd2927e1	-0.041297797
76	0xbd95e92d	-0.073198654
77	0xbd45be7b	-0.04827736
78	0x3eae30e5	0.3402168
79	0xbdcc3f57	-0.099730186
80	0xbc79e79e	-0.015252976
81	0x3e057502	0.13032916
82	0xbeff265b	-0.4983395
83	0xbd0e9376	-0.0348086
84	0xbcfc787c	-0.03081917
85	0xbe2e92ed	-0.17048235
86	0xbd9c4923	-0.07631137
87	0xbb639d5d	-0.0034731247
88	0xbd4f2a36	-0.050577365
89	0xbba00b52	-0.004884162
90	0xbd52bfcc	-0.051452443
91	0xbd8b1282	-0.067906395
92	0xbda5eb52	-0.081015244
93	0xbd8c0a60	-0.068379164
94	0x3f4473e7	0.7673935
95	0xbe0d1d3c	-0.13780683
96	0xbdfeec89	-0.12447459
97	0xbc53232a	-0.012886802
98	0xbc2ef54c	-0.0106786005
99	0xbe01d354	-0.12678272
100	0xbdf5ef10	-0.12008488
101	0x3dd7e32a	0.10541375
102	0xbd750cbe	-0.059826605
103	0xbdecef32	-0.115690604
104	0xbe1268ea	-0.14297834
105	0xbe20bb5e	-0.15696475
106	0xbd6c4b9d	-0.057689298
107	0x3e5ce7d8	0.21572816
108	0xbe0849fa	-0.1330947
109	0xbded8248	-0.11597115
110	0xbd4911cc	-0.049089238
111	0xbda316e8	-0.079633534
112	0xbccd4aca	-0.025060076
113	0xbdbfcce4	-0.09365252
114	0xbcaf2373	-0.021379208
115	0x3cb55796	0.02213649
116	0xbdb5c32b	-0.08875116
117	0xbd4ed262	-0.050493605
118	0x3d17a78e	0.037025027
119	0xbe02baf6	-0.12766632
120	0x3daeeab6	0.08540861
121	0x3efea9af	0.49738833
122	0xbe59b5ed	-0.21260805
123	0xbe2ae57e	-0.16689107
124	0xba963980	-0.0011461228
125	0xbcf349e4	-0.02969832
126	0xbcda0320	-0.026612818
127	0xbd51a197	-0.051179495

action_value.weight f4 [4, 128]
0	0x3e93ba35	0.28853002
1	0xbebcdc30	-0.3688674
2	0xbd9c8f01	-0.07644463
3	0x3d4bcbc2	0.049754865
4	0x3a960cbc	0.0011447887
5	0x3e160c1d	0.14653058
6	0x3d49fd44	0.0493138
7	0xbea27654	-0.31730902
8	0x3ed0a675	0.40751997
9	0x3e3bd441	0.18342687
10	0xbe87077e	-0.26372904
11	0x3e0a2c8d	0.13493557
12	0xbc150c16	-0.00909712
13	0x3cc4a275	0.024003247
14	0x3dcfb1f1	0.101413615
15	0xbd3f232b	-0.0466644
16	0x3e1a2567	0.1505333
17	0x3eaff602	0.34367377
18	0xbdc88153	-0.09790292
19	0xbe48af26	-0.19598064
20	0x3e7a86ec	0.24465531
21	0x3db500a6	0.08838014
22	0xbd826be3	-0.06368234
23	0xbf055e52	-0.52097046
24	0x3eca2a88	0.39485574
25	0x3e612d23	0.21989875
26	0x3e113a31	0.14182355
27	0xbe2f94e0	-0.17146635
28	0xbd08fdb5	-0.03344508
29	0xbe115895	-0.14193948
30	0x3cad4af0	0.021153897
31	0x3c459fa0	0.012061983
32	0x3d6ba8ba	0.057533957
33	0x3dd1255a	0.10212202
34	0x3ea4243e	0.320589
35	0xbdb86134	-0.09002915
36	0x3d5f48b9	0.054512713
37	0xbcdbb922	-0.026821677
38	0x3b9a2667	0.004704285
39	0x3e111f9f	0.14172219
40	0xbc7198f9	-0.014745944
41	0x3dc91ccc	0.09819946
42	0x3f0ef902	0.55848706
43	0xbefb74f2	-0.4911266
44	0x3d2c8e7e	0.04212808
45	0x3d427ed4	0.047484234
46	0xbece04f7	-0.40238163
47	0x3d0d4692	0.03449113
48	0xbc0f9d60	-0.0087655485
49	0xbef84466	-0.48489684
50	0xbef9e04c	-0.48803937
51	0x3d1a2ee9	0.037642393
52	0xbe831c6e	-0.25607628
53	0xbe98f1a4	-0.29871857
54	0xbeeb976f	-0.46013972
55	0xbb761d54	-0.0037554102
56	0x3b9aca90	0.0047238544
57	0x3d316350	0.043307602
58	0x3d7815fe	0.06056785
59	0x3d8cb0c0	0.0686965
60	0x3e012404	0.12611395
61	0x3ce63dd7	0.02810566
62	0x3cfca36b	0.030839643
63	0xbe1d6be8	-0.15373194
64	0x3ebaac4c	0.36459577
65	0xbdab7971	-0.083727725
66	0x3db47b39	0.08812565
67	0x3dcb221b	0.099186145
68	0xbe9a73c6	-0.30166453
69	0xbc57985d	-0.013158885
70	0x3ea10948	0.31452394
71	0xbba1ad79	-0.0049340096
72	0xbe3edfdb	-0.18640082
73	0xbc9d2f1e	-0.019187506
74	0xbd9b725b	-0.07590171
75	0xbc00eee3	-0.007869455
76	0xbe35f048	-0.17767441
77	0x3d7787e1	0.06043232
78	0x3d6f233d	0.058383215
79	0xbe2c5ad9	-0.1683153
80	0xbc300fb4	-0.010745931
81	0xbf227d78	-0.634727
82	0x3ebd33b4	0.3695351
83	0xbd81d2d6	-0.06339042
84	0xbc2fe9ed	-0.010736925
85	0xbc956ff9	-0.01824187
86	0xbd1f6f10	-0.038924277
87	0xbd5ad432	-0.05342502
88	0xbd5b1ae4	-0.05349244
89	0xbe852932	-0.26007992
90	0x3da7dbc7	0.08196216
91	0xbd75673d	-0.05991291
92	0xbdede582	-0.11616041
93	0xbe449f77	-0.19201456
94	0x3d9e19ba	0.07719751
95	0x3e89c07b	0.26904663
96	0x3dce9128	0.1008628
97	0x3c080db5	0.008304049
98	0x3b2ce416	0.0026381067
99	0x3d564dcd	0.05232029
100	0x3e4aef45	0.19817837
101	0xbc8840e5	-0.016632507
102	0x3d29077a	0.041266896
103	0x3dbc5b2c	0.09197077
104	0x3b354e76	0.0027665175
105	0x3d8c91b3	0.068637274
106	0xbe6e1b4b	-0.23252599
107	0x3da55284	0.08072379
108	0x3e08e4bf	0.1336851
109	0x3d93fc07	0.07225805
110	0xbdec7189	-0.115450926
111	0xbed35b5e	-0.41280645
112	0x3e128845	0.14309795
113	0xbe86add7	-0.26304504
114	0x3e9552bc	0.29164684
115	0x3ebe91eb	0.37220702
116	0x3d47e3ce	0.048801236
117	0x3d280f70	0.041030347
118	0xbe420d73	-0.18950443
119	0xbcf6c9ab	-0.03012546
120	0x3db4a04d	0.088196374
121	0x3d2889c5	0.041147012
122	0x3e96805b	0.29394802
123	0xbd010c61	-0.031505946
124	0xbc90b741	-0.017665507
125	0x3ed5587f	0.4166908
126	0xbc808a9a	-0.01569109
127	0xbdb085ce	-0.08619271
128	0x3dab4ae9	0.08363897
129	0x3f00f8da	0.5037972
130	0x3f1137c9	0.56725746
131	0x3e471143	0.19440179
132	0xbd89c812	-0.067276135
133	0x3dff666c	0.12470707
134	0x3d9be808	0.07612616
135	0x3da0d073	0.078522585
136	0x3da855b4	0.082194716
137	0xbd1e8723	-0.038703095
138	0x3ef6b9a3	0.48188505
139	0x3d2e2e2e	0.04252451
140	0x3d0df0c5	0.034653444
141	0xbdacfa71	-0.084462054
142	0xbdfcc65b	-0.12342521
143	0x3d1120fd	0.03543185
144	0x3e0b4614	0.13600951
145	0x3de1436c	0.10999188
146	0x3e22c5d6	0.15895781
147	0x3e4fdd78	0.20299327
148	0x3e59840a	0.21241775
149	0xbd4ba282	-0.049715526
150	0x3a92230d	0.0011149362
151	0xbdd7cde5	-0.10537318
152	0x3ecfd271	0.40590242
153	0xbe8dd7ff	-0.27703854
154	0x3ba974c6	0.005171391
155	0x3e944623	0.2895976
156	0x3dbe2603	0.09284594
157	0xbe325aa6	-0.17417392
158	0x3d4df16e	0.050279073
159	0x3ed51007	0.4161379
160	0x3dff2111	0.12457479
161	0x3efb0dc9	0.49033955
162	0x3e6be8d7	0.2303804
163	0x3d83c69d	0.06434367
164	0x3d6a8ba6	0.057262085
165	0xbcd025e7	-0.025408698
166	0x3ce3514f	0.027748732
167	0x3de47d4d	0.11156712
168	0x3e214e09	0.15752424
169	0x3d9bd7d2	0.07609524
170	0xbb276e24	-0.0025547827
171	0x3d821ce6	0.06353168
172	0x3cbae3c2	0.022813682
173	0xbcd15dcb	-0.02555742
174	0x3d73ba26	0.059503697
175	0xbd3d2850	-0.046181023
176	0xbd8393c5	-0.06424669
177	0x3e72409e	0.23657462
178	0x3ed54d9e	0.4166078
179	0xbb7ae8f0	-0.0038285814
180	0xbcf7a3e6	-0.03022952
181	0x3e51e190	0.20496202
182	0xbc0217b6	-0.007940223
183	0x3e19233d	0.14954849
184	0xbe24b5a4	-0.16084915
185	0x3eae4fd5	0.34045282
186	0x3e074822	0.1321111
187	0xbd9d9f1d	-0.07696364
188	0x3e093973	0.13400821
189	0xbcf1c158	-0.029511139
190	0xbd3a58be	-0.045494787
191	0xbe6e19ae	-0.23251984
192	0xbe900480	-0.28128433
193	0x3d99008d	0.07470808
194	0xbdecc1b7	-0.11560386
195	0x3db66f44	0.08907941
196	0x3f18af03	0.59642047
197	0x3d01917c	0.031632885
198	0x3dec596b	0.115404926
199	0xbd3a601b	-0.04550181
200	0x3cddf10a	0.027092475
201	0xbc6c764d	-0.014432502
202	0xbcd33aa5	-0.0257848
203	0x3cd9f551	0.026606234
204	0x3d5fac1e	0.054607503
205	0xbd28bafa	-0.04119394
206	0x3bc92d35	0.0061394223
207	0x3cbf8e94	0.023383416
208	0xbba011a5	-0.004884916
209	0x3d8b68a0	0.06807065
210	0x3e622ce6	0.2208744
211	0x3c98b752	0.018642101
212	0x3d1854e8	0.037190348
213	0x3dcff464	0.10154036
214	0x3cb6a95c	0.022297554
215	0xbd009a78	-0.031397313
216	0x3d739b14	0.059474066
217	0x3e9a24e1	0.3010626
218	0x3d87613b	0.06610342
219	0xbbbcb987	-0.0057594213
220	0xbe6d4f22	-0.23174718
221	0x3e9f8bf3	0.3116146
222	0x3dc4ae60	0.09603572
223	0xbe7ec5e9	-0.24880184
224	0x3dea66b1	0.11445368
225	0x3e77871c	0.24172634
226	0x3da10709	0.0786267
227	0x3e21f455	0.15815862
228	0x3d4504ac	0.04810016
229	0x3d60bc17	0.054866876
230	0x3e0bdc53	0.13658266
231	0xbd9cc900	-0.07655525
232	0x3dc5d9a7	0.096606545
233	0xbe1fb1b3	-0.1559513
234	0x3e1948b1	0.14969136
235	0x3df289e3	0.11842706
236	0x3df673c2	0.12033798
237	0x3e73abf7	0.23796068
238	0xbdbe8e12	-0.093044415
239	0x3e5c46b3	0.21511345
240	0x3d92636b	0.07147869
241	0x3d17cb7d	0.037059296
242	0xbd40870b	-0.047003787
243	0x3e8bcbcc	0.27303922
244	0x3d8a78b0	0.067613006
245	0x3dfb75f7	0.122783594
246	0x3e0d1dcb	0.13780896
247	0xbc97071b	-0.018436005
248	0x3ecf4852	0.40484864
249	0x3cbe44a9	0.0232261
250	0x3d1643f5	0.036685903
251	0x3d0224d5	0.031773407
252	0xbdab2083	-0.083558105
253	0x3eb03ce0	0.34421444
254	0xbcd83e20	-0.026396811
255	0xbda41a11	-0.08012784

action_value.bias f4 [4]
0	0x3f859259	1.0435287
1	0x3f7176bd	0.94321805
2	0x3f76c753	0.96397895
3	0x3f85b0e7	1.0444611

state_value.weight f4 [1, 128]
0	0xbe69fcf9	-0.22850408
1	0xbe95f905	-0.2929155
2	0xbf0085e6	-0.5020431
3	0x3e27d55c	0.16389984
4	0x3d09ffff	0.033691403
5	0x3cd3fae7	0.025876475
6	0x3d2808a6	0.041023873
7	0xbe9f5396	-0.31118459
8	0xbf0e3002	-0.55542004
9	0x3f0a508c	0.54029155
10	0xbeadf162	-0.33973223
11	0x3aed71f5	0.0018115627
12	0x3cef3dab	0.02920421
13	0xbc8db070	-0.017296046
14	0x3e9637e3	0.29339513
15	0x3cb5e534	0.02220402
16	0xbcbbfd5e	-0.022947963
17	0xbf158802	-0.58410656
18	0xbe5cb6f1	-0.21554162
19	0xbebe48c8	-0.37164903
20	0xbe15d3a5	-0.14631517
21	0x3d62f9b6	0.055413924
22	0xbc0fb58c	-0.0087713115
23	0xbe9584d4	-0.29202902
24	0xbec05437	-0.3756425
25	0xbe14a009	-0.14514174
26	0xbf0fa961	-0.56117827
27	0xbf1211d2	-0.5705844
28	0xbd3d2ce8	-0.046185404
29	0xbe03ab99	-0.12858428
30	0x3da7c9fd	0.08192823
31	0xbe128b96	-0.1431106
32	0x3e86e1b5	0.26344076
33	0xbe96fa7e	-0.29487985
34	0xbe57baea	-0.21067396
35	0xbeb2f075	-0.3494908
36	0x3cda1838	0.026622877
37	0xbbe6621b	-0.007030738
38	0x3b7a2394	0.003816818
39	0x3d8cd20d	0.068760015
40	0xbeff22da	-0.49831277
41	0x3db43247	0.08798652
42	0xbf04a7f3	-0.5181877
43	0xbf1b3e90	-0.6064234
44	0x3d47e80b	0.048805278
45	0x3d9f49d0	0.077777505
46	0xbeb3e7d6	-0.35137814
47	0xbe96c04d	-0.2944359
48	0x3bc7d5c8	0.0060984828
49	0xbe68e8f0	-0.22745109
50	0xbe5c8a78	-0.21537197
51	0xbc8c3cb7	-0.017118795
52	0xbe10e3c1	-0.14149381
53	0xbee53fbe	-0.44775194
54	0xbeb107af	-0.34576175
55	0xbe5eac82	-0.21745494
56	0x3e3b487b	0.18289368
57	0xbefa0ef4	-0.48839533
58	0x3da8666f	0.08222663
59	0x3d2cf9e6	0.04223051
60	0xbd4e23f9	-0.050327275
61	0xbd6470d6	-0.05577167
62	0xbcde1fbe	-0.027114745
63	0x3f0dd394	0.5540097
64	0xbdbc8728	-0.092054665
65	0xbed947e6	-0.42437667
66	0x3d650a0c	0.055917785
67	0x3e0ae1a3	0.13562636
68	0xbb500748	-0.0031742621
69	0x3b44e1ca	0.0030041807
70	0xbe263fc5	-0.16235264
71	0x3d9ba72a	0.076002434
72	0xbea4ede6	-0.32212752
73	0xbb3ea5ec	-0.0029090596
74	0xbe781dd2	-0.24230126
75	0x3d9db989	0.07701404
76	0xbe9b38d9	-0.3031681
77	0x3d158a5c	0.036508903
78	0x3d62b0ee	0.055344515
79	0xbd8324e3	-0.0640352
80	0x3cf2bb9a	0.029630471
81	0xbecd1bbb	-0.4006022
82	0xbee13f98	-0.4399383
83	0xbc813ccb	-0.015776059
84	0x3d41110e	0.047135405
85	0xbe79ee29	-0.24407257
86	0xbce85036	-0.02835856
87	0xbca7f64e	-0.02050319
88	0xbbb22b42	-0.0054372856
89	0xbd97fb1d	-0.07420943
90	0x3dc13687	0.094342284
91	0x3d79f6ff	0.06102657
92	0x3e91e8ae	0.28497833
93	0xbe744f2d	-0.23858328
94	0x3df3c259	0.11902303
95	0xbe8289bc	-0.25495708
96	0x3dbfcc44	0.093651325
97	0x3e3a76c7	0.18209372
98	0x3dc77a3c	0.09740111
99	0xbe9456c1	-0.28972438
100	0x3ec8cb0a	0.39217407
101	0x3d8e612d	0.069521286
102	0x3df099e3	0.117481016
103	0xbe602b44	-0.21891505
104	0x3ee5d057	0.44885513
105	0xbebedadc	-0.3727635
106	0x3e782b0a	0.24235168
107	0x3d4b97e0	0.049705386
108	0xbd082fb5	-0.033248622
109	0x3e242802	0.16030887
110	0xbe89e66f	-0.2693362
111	0xbe134d6b	-0.14385001
112	0x3db3cf36	0.08779757
113	0xbdeceb30	-0.11568296
114	0x3e8def23	0.2772151
115	0xbe8dc311	-0.27687886
116	0x3de66232	0.11249198
117	0x3ee28684	0.44243252
118	0xbeccbf0a	-0.399895
119	0x3ddf6634	0.109081656
120	0xbe4b869a	-0.19875565
121	0x3e1585d2	0.1460183
122	0xbe3f97c1	-0.18710233
123	0x3de3ddbe	0.11126278
124	0x3cd79b41	0.026319148
125	0xbd0e3a89	-0.034723792
126	0x3d389008	0.045059234
127	0x3d0e569c	0.034750566
