checkpoint.pth (torch_old, 344523 bytes, 7 tensors)

hidden_layers.0.weight f4 [512, 37]
00000000: 29cd 39be f450 82be f4c0 973d 43b3 25bf
00000010: 48c5 fbbd faf9 f0be 03f3 24bf ca03 f53d
00000020: c3d1 013f 7521 0cbf 40aa 66be 0d5a 06be
00000030: fa03 43bf 5543 50bc 79a9 b6be c31e 88bd
00000040: 5950 09bf 5ca6 4b3e 2c5a 6fbe 3b67 5dbf
00000050: 7a24 2abd f2b5 483d e8b4 9fbe 3a3d 803c
00000060: d56d c2bd 9447 f5be a7ab 783e 4949 94be
00000070: fcf2 033d c5ec 94be ff56 01bf 3100 01bf
00000080: 7491 473c 9987 cdbd acc3 cdbe e7b6 ccbe
00000090: 589c 53b9 5b2b 59bc 9b92 1a3e c52f b0be
000000a0: 2f24 83be 59a5 17bf 7ea2 25be eb57 a9be
000000b0: 9455 09be 12e1 0b3d 9b37 3abe 2047 4d3e
000000c0: bfe9 23bf ca1b fcbd e41f 25be b184 db3e
000000d0: 1d22 78be 544c 213e a10b 583d 8325 cfbe
000000e0: 262b 0ebf 7caf 88be 1e60 1cbe 6d9b b4bd
000000f0: 362b 2c3d 0e18 b63c f104 9dbe 2e2c bf3d
00000100: a64d 203e 2fbe 0abf e7c0 10be 5be4 7cbe
00000110: 8746 233e 932c 993e 4d01 eebe f7d3 c13d
00000120: e473 5e3e 058f 103c 7fb9 d33e 245f b33b
00000130: b46a c2bd 27c6 89be 9963 70be d4e3 03bf
00000140: 2e6c babe 9bd2 833e 9467 d23e 4af6 57bf
00000150: ea2d 23bd 493a 933e 8aad 1cbe ca79 63bd
00000160: b6b5 50bd 744c 92be 2ff8 a93e 05f7 97bd
00000170: 64f9 b13d 9c29 c1bd 8d06 e7be 9d12 92be
00000180: a2c7 3d3e 89ce f13d fd0a dbbe d696 afbe
00000190: 0b82 203e eb3b 523e 8af0 8a3e ccf2 1b3d
000001a0: e8ab cfbe 5414 2fbd 0363 8b3e e228 a3be
000001b0: 7f14 eabd 42e4 723d e73b f6bc 8d27 1ebe
000001c0: 5679 91bd 9952 6d3e 56a7 ba3e 979c 5abf
000001d0: 2050 4fbe cdc9 2d3e 4e4c 943c 1a42 913e
000001e0: 926e ebbd a1b7 0b3e bafe 42bd 61d0 02be
000001f0: ae96 debd b18f abbf b7ae 11be 89fe c13d
00000200: 10f7 053e 8de4 aebe 50a8 9abe 452f 103d
00000210: 63b8 edbe abcc 323e a3a9 623e 9092 a3bd
00000220: b68d d83c 45b5 433d 5aa7 cd3d 45ed 443d
00000230: e85c 5e3e 4290 7e3e 3273 9bbd 55a6 223c
00000240: 8bda 5bbe c0e2 95be ee3f 16be 2f95 2e3c
00000250: 7fc2 e1be 0597 05bf 17b1 38bc 3bb7 763e
00000260: 7462 a1be 6925 1f3e 0ae1 883e 17bc 0bbf
00000270: ca75 9bbd f996 38bf 49ce aebd 4bd6 163d
00000280: 11a0 50be bce4 583d c660 86be 5895 b0be
00000290: 4d5e 17be 0f41 493e cac8 ac3d 255e 1c3f
000002a0: 4511 9fbe 0cfc 36bd 026c 7cbd 5c6c 983e
000002b0: d8b5 f3be 47ae 433e 8095 87bd 3455 f13d
000002c0: 8c43 12bf 2be7 523e 63ae 0bbe c962 9abb
000002d0: 6912 a53e 3d85 73be cce5 37bd db6f aa3d
000002e0: 754d b9bc 6cbb 59bd 803a 9bbd 1bb0 ca3d
000002f0: 106d 84be 5cac 543c c152 d13d 0e26 f83d
00000300: 6325 e1be f519 afbe fa0a a8bf 71d2 61be
00000310: 3a27 1a3e b6d8 eebd b84e 50be eabe 16be
00000320: cc8d 9bbe 1002 843e 891b b6bd e3a9 5f3d
00000330: 6fd9 4dbd a44b 653e f619 abbe 6d8b 1c3e
00000340: df90 9cbe fab4 68be ff3f 9b3d 2e84 9abe
00000350: ba57 6b3d c07c d03c c9ee 58be 9e13 4ebd
00000360: 6550 ec3d d3d0 a4be 924d 15bd 9267 a43e
00000370: b538 033e a7ed 6b3d 5eab 4c3d b95f c73d
00000380: 50a6 fdbc 5ad3 b83d 1dda 15be c759 60bd
00000390: e630 16bb 36be 243c 3a1d 223e 58e0 943e
000003a0: 0da3 fa3d b46c 843d f570 e73d 42ce 003e
000003b0: aa99 7d3d 8c08 093d cac1 2cbd 3c1d 113d
000003c0: b6fc b43d 9f0e 4c3e 00b1 093d ebd8 d93c
000003d0: cf81 0dbc 984f fe3d 16c4 0a3d 1fc0 18be
000003e0: e121 613d cb1d 323d bd05 ef3d 9f33 963d
000003f0: d146 d33e d55b 26bf 7cec 06bf c4ff 8bbf
-0.18144669 -0.25452387 0.0740985 -0.64726657 -0.12293488 -0.47065717 -0.64433306 0.11963613
0.50710696 -0.5473855 -0.22525883 -0.13120289 -0.7617794 -0.012711366 -0.35676172 -0.06646492
-0.53638226 0.1988768 -0.23374242 -0.8648564 -0.041538693 0.04900164 -0.31192708 0.015654195
-0.09493605 -0.47906172 0.2428423 -0.28962162 0.03221415 -0.2908689 -0.5052337 -0.5039092
0.012180675 -0.10035629 -0.40188348 -0.39983293 -0.0002018077 -0.013254966 0.15094988 -0.34411445
-0.25613543 -0.59236676 -0.16175267 -0.3307489 -0.13411552 0.03415019 -0.18185274 0.20046663
-0.64028543 -0.12309988 -0.16125447 0.42874673 -0.24231763 0.15751773 0.052745465 -0.40458307
-0.5553459 -0.26696384 -0.15271041 -0.088187076 0.042033397 0.022228267 -0.30667832 0.093345985
0.1565462 -0.5419645 -0.14136086 -0.24696486 0.15944873 0.2991682 -0.46485367 0.09464257
0.21723896 0.008823161 0.4135246 0.005473988 -0.09493008 -0.2690899 -0.23475493 -0.51519513
-0.3641066 0.25746617 0.4109465 -0.8436018 -0.03983871 0.28755406 -0.15300575 -0.05553607
-0.050954543 -0.28573954 0.33197162 -0.07420162 0.086901456 -0.094317645 -0.45122185 -0.28529826
0.18533185 0.118069716 -0.4278182 -0.34294766 0.15674607 0.2053067 0.27136642 0.038073346
-0.40560842 -0.042743996 0.27223977 -0.3186713 -0.114296906 0.059299715 -0.03005786 -0.15444775
-0.07103221 0.2317604 0.36455792 -0.8539519 -0.20245409 0.16971512 0.018102791 0.28370744
-0.11495699 0.13644268 -0.047606207 -0.12774803 -0.108685836 -1.3403226 -0.14226805 0.09472377
0.13082528 -0.34158745 -0.30206537 0.03520133 -0.46429738 0.17460887 0.22135024 -0.07986939
0.02643476 0.047780294 0.100416854 0.04807784 0.21715128 0.24859717 -0.07590331 0.009927352
-0.21470086 -0.2927456 -0.14672825 0.010655685 -0.440937 -0.5218356 -0.01127269 0.24093334
-0.31520426 0.15541615 0.2673419 -0.5458388 -0.07590826 -0.72105366 -0.085354395 0.03682546
-0.2037356 0.052952513 -0.26245707 -0.3448894 -0.14782067 0.19653724 0.08436735 0.61081153
-0.31067863 -0.044673964 -0.06162644 0.29770172 -0.47599673 0.1910945 -0.06620312 0.11783829
-0.5713432 0.20595996 -0.13640742 -0.004711483 0.32240608 -0.23781295 -0.044896886 0.08322116
-0.022619942 -0.053157255 -0.07579517 0.09896871 -0.25864458 0.012980547 0.10220862 0.12116633
-0.43973836 -0.3419949 -1.312835 -0.22052933 0.15054026 -0.11662428 -0.20342529 -0.14721265
-0.3038162 0.25782824 -0.08891971 0.054605376 -0.05025619 0.22392136 -0.33418244 0.15287562
-0.30579278 -0.22725287 0.07580566 -0.3017897 0.05745671 0.02545011 -0.2118484 -0.050311677
0.115387715 -0.3219057 -0.03645093 0.32110268 0.12814601 0.05759969 0.049968116 0.097350545
-0.030963093 0.09024687 -0.14633985 -0.05477312 -0.002291733 0.010055115 0.15831462 0.2907741
0.12238131 0.06466046 0.11300842 0.12578681 0.061914124 0.033455417 -0.042177 0.03542827
0.08837263 0.19927453 0.033616066 0.026592692 -0.008636906 0.12417525 0.03387841 -0.14917038
0.05496395 0.043485444 0.11671016 0.07334065 0.41264966 -0.64983875 -0.52704597 -1.0937428

hidden_layers.0.bias f4 [512]
00000000: 4b56 50be ed10 15bd ee84 203d ffd3 00bd
00000010: b960 0ebd df0c 87be 4df3 1c3e 3891 5ebe
00000020: 8e7f bcbd 4371 a5bd 41aa 95be 5470 1e3e
00000030: 5ccb 61bd 84bd 8fbd bf12 5dbe bfe8 88be
00000040: 5693 063c f4b4 94bd f96f 56be afb2 3fbd
00000050: 2989 88bd e408 f13c 59bb 73bd d7fb cabd
00000060: 600a 9abc 4e20 30be 95de 55be 4839 5b3e
00000070: 1a24 9d3d 2765 f83d 97db bb3d 1bc7 b0bd
00000080: a745 62be 27de 9bbe f35f 44be bfb5 34be
00000090: 2095 2fbe 4422 10be abf1 0cbe fb61 67bd
000000a0: 8e31 0fbe f6e1 00be 7850 783c 5b4e c5bd
000000b0: 72e3 9f3d 6f33 a0bd 85eb 24be 9474 dbbc
000000c0: 89ea bdbd ff69 abbc 8157 fcbc d783 63be
000000d0: 63cb 43bc 9981 85bd fac6 05be 3d26 59be
000000e0: 603d e23d da9d 61be 604f dcbd fc8d 34bd
000000f0: e87d 39bd 5de8 69bd d63f 38be 598a 3ebd
00000100: 9d92 5e3b 5c71 4abe 115a 1b3e f2fd 54bb
00000110: 0edc e5bd d927 6abe 2dd0 ee3d a76a 96be
00000120: 4a03 e2ba 3fc7 b83c 895a eb3b de19 c4bc
00000130: a200 21be c9e7 04be 43fc c7bc beb2 4cbe
00000140: c01e 00be 1e52 8a3c cfca 73be 27f4 ebbd
00000150: 46f1 583d 7816 693d c073 42be 807a daba
00000160: fc76 2d3e bfa4 9fbe 4760 4ebd d512 87bd
00000170: 6402 87be ee08 253e 3838 133c ecb6 3fbe
00000180: 77de cf3c 2b7a 6cbe 8660 cb39 023a bbbd
00000190: e069 223c 1f59 5abd d1f9 32be df0c 71bd
000001a0: d09a 79be 0712 fdbc 2d11 cdbd 66af 81be
000001b0: 4ef2 3b3d 27c4 9cbd 9438 33be c6c1 393d
000001c0: 6cae e2bd 0a23 ce3d a2a6 91be dd36 04bd
000001d0: 24a6 11be b6c0 093d 412e bebd 4f81 3ebe
000001e0: 8d21 e2bd b718 88bd faf0 68be 9a89 4cbe
000001f0: b6d8 aa3d b7a3 babd 65a0 82be 99f9 1fbe
00000200: e09d fc3c c9d7 29bc 78b4 91be 1e5a 86be
00000210: ccbf 8abe fbb8 1a3d 103b 11be bd46 b2bd
00000220: 55e2 97be c66a acbd 5c87 80bd 3e72 e2bd
00000230: 202a 10be 32f3 9c3d cef2 78be 0379 ecbd
00000240: dd1b 99be aecd 7cbe c1aa 02be 0460 393e
00000250: eb8f 3abc d33b 953d 6f87 ac3c 572c 983d
00000260: 4147 b93c 361f 57be 6e02 083d af57 8abe
00000270: 36a4 3e3d 0970 cabd 2354 babd 92fe 6dbe
00000280: db63 f0bc 05b1 0dbe f3ab 81be 28d0 40be
00000290: c664 a5bc 1707 d9be 86fd a2bd b6d1 8fbd
000002a0: 90fe 68be e425 23be b4e4 743e 2ed2 b7bd
000002b0: 99b0 e2bd eeca 65be 1551 41be 0ca2 93be
000002c0: a207 e1bd 37d2 3dbd 40f4 34bc fa42 42be
000002d0: dff0 0fbe 1c6a 02be b4e7 43be 374d 023d
000002e0: d39d 61bd eb9f 0abe bc02 13be c9b6 ebbd
000002f0: c21a 68be 3dfa 30be a2b9 d63d 43c5 3c3d
00000300: ef54 92bc b2a8 80bd 1511 16bd 994b 56bd
00000310: 8033 57bd 1215 93be 25b1 a9bd 6e10 4ebe
00000320: ebd9 9d3d 7c70 05be 5017 adbc d746 95bd
00000330: 0148 7abe 26c4 213c ede9 f1bd 94ea 06be
00000340: b12b b43c 275d 05bb 9f13 02bd 0790 1fba
00000350: 2569 c1bd 91a5 8d3d 6b2c 1bbe 73d6 80bc
00000360: 8239 ecbb 87ce e7bd e8db 523d 631e 92be
00000370: d44f c2bd 0c6c 54be d7bb 583c 3607 27be
00000380: c350 36be 4243 8cbd 6b9b ebbd d173 4fbe
00000390: 4fbb d93c 7b7f aabd 942d 71be 444b c5bd
000003a0: a39a 93be 527f 1ebe 1b30 6c3b ef57 44be
000003b0: bcec 07be 6834 5b3c 8da4 1abd 70be 2cbe
000003c0: 57b0 063e 9c52 48bd 17ca 14bd 827e 10bd
000003d0: 0bdc 88bd 6401 cbbd 3638 193e f5e6 ab3d
000003e0: 9124 6dbd 4fab 8a3d d2db 1abb d22a 9dbc
000003f0: da91 9cbb b76a 56be bf58 0ebe e390 63be
-0.20345418 -0.036393095 0.03918927 -0.031452175 -0.03476021 -0.26377007 0.15327187 -0.21735084
-0.092040166 -0.080782436 -0.29231456 0.15472537 -0.05512558 -0.07018569 -0.21589182 -0.2674007
0.008213839 -0.072610766 -0.20941152 -0.046801265 -0.06666786 0.029423185 -0.05950484 -0.09911316
-0.018803775 -0.17199823 -0.2088569 0.2140857 0.076729015 0.12128668 0.09172743 -0.08631726
-0.22096883 -0.30442926 -0.19177227 -0.17647456 -0.1714673 -0.14075571 -0.13764064 -0.056489926
-0.13983747 -0.12586197 0.015155904 -0.09634086 0.078070536 -0.0782231 -0.16105469 -0.026788987
-0.0927325 -0.020924566 -0.030803444 -0.22218262 -0.011950347 -0.065188594 -0.13064185 -0.21205993
0.110468626 -0.22032872 -0.10757327 -0.04408072 -0.04528609 -0.057106365 -0.17993101 -0.046518657
0.00339619 -0.19769806 0.15171076 -0.0032499996 -0.11223613 -0.22866763 0.116608 -0.29378244
-0.0017243412 0.022555945 0.0071824235 -0.023938116 -0.15722898 -0.12979044 -0.02441228 -0.1999006
-0.1251173 0.01688486 -0.23807834 -0.11521178 0.05296447 0.056906193 -0.18989468 -0.0016668588
0.1693992 -0.3118038 -0.050384786 -0.06595389 -0.2636901 0.16116688 0.008985572 -0.18722123
0.025374634 -0.23093478 0.00038791093 -0.091419235 0.009912938 -0.05330765 -0.1747811 -0.058850165
-0.24375463 -0.030892385 -0.10013042 -0.2532913 0.045885377 -0.076546006 -0.17502052 0.045350812
-0.110684246 0.10065277 -0.28447443 -0.032278884 -0.14223534 0.03363105 -0.09286166 -0.18604015
-0.110415556 -0.06645339 -0.22748175 -0.19974366 0.083421156 -0.091132574 -0.25512996 -0.15622558
0.030837 -0.010366389 -0.28458 -0.2624063 -0.27099454 0.037774067 -0.14182687 -0.087048985
-0.29664865 -0.08418803 -0.06275818 -0.11056946 -0.1407857 0.07663573 -0.24311373 -0.11546519
-0.2990407 -0.24687836 -0.1276045 0.18103033 -0.011386852 0.07286801 0.021060674 0.07430332
0.022616984 -0.21008 0.033205442 -0.27020022 0.046543323 -0.0988465 -0.09098079 -0.23241642
-0.02934449 -0.13837059 -0.253265 -0.18829405 -0.020189654 -0.42388222 -0.07958512 -0.07022421
-0.22753358 -0.15932423 0.23915368 -0.089756355 -0.110688396 -0.22440693 -0.18878587 -0.2883457
-0.10987784 -0.046343055 -0.011044562 -0.18970862 -0.14056729 -0.1273579 -0.19131356 0.03181192
-0.055082154 -0.13537566 -0.14356512 -0.11509473 -0.22666457 -0.17282958 0.104846254 0.04608656
-0.017862765 -0.06282176 -0.036637384 -0.05231819 -0.05253935 -0.28727013 -0.08285741 -0.20123455
0.0770758 -0.1303119 -0.02112928 -0.07288902 -0.2444153 0.009873426 -0.11812196 -0.13175422
0.02199349 -0.0020349713 -0.031756993 -0.00060868304 -0.09443883 0.06916345 -0.15153663 -0.015727257
-0.007209004 -0.11318689 0.05147925 -0.28538808 -0.09487882 -0.20744342 0.013228378 -0.16311345
-0.17804246 -0.06848766 -0.11504253 -0.20259024 0.026578574 -0.08325096 -0.23552543 -0.096334964
-0.28828916 -0.15478256 0.0036039415 -0.19174169 -0.13273901 0.013379194 -0.037754584 -0.16869521
0.13153206 -0.048906907 -0.03632554 -0.035276897 -0.06682595 -0.099123746 0.14962849 0.08393661
-0.0578962 0.06770956 -0.0023629558 -0.019185457 -0.004778129 -0.20939146 -0.13901041 -0.22223239

hidden_layers.1.weight f4 [128, 512]
00000000: ddc0 b7b9 64b3 87bc a59e 17b9 880d 04bd
00000010: c67b 19bd 948f 89bc 30e1 223d 74b4 31bd
00000020: c586 de3b 183d 223d a1ea e2bc 73e6 87bd
00000030: 271e 07bd 6151 6bbc 505a 1a3d 42c0 f6bc
00000040: cc53 1a3d a885 40bd d6b9 063d 7841 d1b8
00000050: 37ff b8bc 3109 1ebd ec15 2ebd d7fc f4bc
00000060: 9cf8 9abd 01f9 dfbc 2ed9 183d b27d 72bd
00000070: e680 a63c 9c59 3abc 8aa0 b73c 84ff 05bc
00000080: 6d20 09bd 67a8 863c 7194 e43c 98a1 133c
00000090: 6702 993c ad26 bc3c 3481 9abb c381 f5bc
000000a0: fd9a 9e3c 2f5b 35bd c851 fa3c 269c 163c
000000b0: f217 223b 93a1 4cbc d394 023d 8622 693c
000000c0: 803b 683c d2c0 c1bc d90a b4bc 7a9b 513b
000000d0: 448c c43c b502 cdbc f1b8 6d3c db6d 32bd
000000e0: 4742 a23c cc7d c6bc d5bb 1cbd 0c74 013d
000000f0: 3a6c 06bc 273f 0cbd cb34 933b 80d2 db3c
00000100: 1076 a33b 160d 02bd ba2a afbc d642 d1bc
00000110: 2e29 5f3c 8c23 5ebd 3c21 17bd 7dde 7fbd
00000120: 3b65 d4bc 1658 173d acec a7bb 0505 4cbc
00000130: 35a7 0e3b 0472 1ebd eebd b8bc a889 003d
00000140: 8c2f 30bd 7f92 3bbd 3b1b b9bc 07f1 60bd
00000150: b928 edbc f37c 0d3c 7d55 8bbc 688d 6a3c
00000160: 8860 caba 75b7 0abd a7ea febc 4e0e dc3a
00000170: 4b5a c33c d7c8 07bd 2967 c23c 3490 dbbc
00000180: cfc4 35bd 71a0 973b 396f 403c 0650 7c3b
00000190: dbc4 c03c f217 7bbc 484e 21bc 40bb b7bb
000001a0: 9933 073c d42a 88bc 9c6e 023c b139 fdbb
000001b0: 9417 30bd bb0d e63c 0106 afbd 08de 71bb
000001c0: b0bf 18bd bb6f 82bc fc4b 8a3c 7d46 393c
000001d0: 8c36 d63c e3f2 b8bc 7ce5 313c b22e f73b
000001e0: b28d 8dbd 96b7 ebbc 269a f53b ad86 acbb
000001f0: f67c bfbc 8eb0 a5bc d3fc 463c 90e7 493c
00000200: 74d0 cb3c 84a2 bc3c 16db 973a a8ec 1abd
00000210: 19ac 843c 7aa0 c1bc 2e2f c83b 62e0 07bd
00000220: 018e 213c da47 2abc de6f ab3c c017 45bc
00000230: c0c5 993c baab 5fbd 6bb8 0a3b a4f7 44bd
00000240: f5ff 51bd c2f5 41bd d879 13bd a3ed adbc
00000250: 1e6e fb3b 24d4 0b3b ee10 88bc c443 323c
00000260: 8b9c 33bd 3e8c 213d c84e fbbc b92d e0bc
00000270: b090 95bc 65d1 96bc c5d8 463c 363a 95bc
00000280: 67be f23c efc2 a4bc 9dd6 cbbc 82e1 093b
00000290: f2bb 87bc 3a7a b43c 1cf6 1abb 01fe c33c
000002a0: bdf4 36bd 6378 82bc b29b 7bbd 95ea 55bd
000002b0: d621 51bd 93b0 27bd dcbb acbb dafb 26bd
000002c0: d0dc 6fbd 07ec 6fbd f5d9 25bd b5d7 2b3c
000002d0: 6899 ffbc 67ea b5ba dc75 86bb fc8d c63c
000002e0: 658b ffbc 38bb e03c f2dc 713c 3973 83bc
000002f0: d5b2 a9bc cf60 1e3c 20b5 3abb 9e55 693c
00000300: 2a30 2bbd 2120 0dbd 9e65 0fbc 0f09 3ebd
00000310: 28f6 0fbd 5971 193c 9d13 90bd 4dc3 ff3c
00000320: eeb3 193d 38cf 92bc b713 50bc 8b9f f9bb
00000330: b654 e1bc 618b f53c b2b2 1bbd 245c 49bd
00000340: 7357 a6bc 9080 84bc 9789 07bd 4244 71bc
00000350: d66c 92bc b72c e03c 53aa 70bd b881 bb3a
00000360: 71e7 073c 11bf c4bc 543d 53bd 22b3 46bb
00000370: d0ef b43a 11cb 8ebb 46c6 68bc 04dd 003c
00000380: c0ef 1cbb 0131 28bc c5e3 cc3b bbb0 aa3c
00000390: 19c0 c7b9 a82e 08bd cad6 ffbb b377 bcbc
000003a0: 3611 263b 1876 94bc b80b 1dbc b60c c5bb
000003b0: 0295 85bc 7ed8 52bd 5075 4ebd 7093 8fbc
000003c0: f922 34bd e969 5abd a57f 76bd fed9 01bd
000003d0: 1210 59bd c44f babc 2dd2 143c 2cfd 68bd
000003e0: 94ee 93bc b83b b9bc 9354 31bb 41bc 983c
000003f0: 3b64 b2bc 11bf df3c af1f b13c 2134 41bd
-0.00035048174 -0.016565032 -0.00014459582 -0.032239467 -0.037471555 -0.016792096 0.039765537 -0.043384984
0.006790968 0.039609045 -0.02769977 -0.066357516 -0.03298774 -0.014362664 0.037683785 -0.030120973
0.03767757 -0.047002465 0.03289207 -9.978091e-05 -0.022582633 -0.038582984 -0.042501375 -0.02990572
-0.0756695 -0.027340414 0.037316494 -0.059201904 0.020325135 -0.011373904 0.022415418 -0.008178595
-0.03347819 0.016437722 0.027902814 0.009010695 0.018677903 0.02296766 -0.0047151092 -0.029969102
0.019361014 -0.044276413 0.030556574 0.009192502 0.002473351 -0.012489694 0.03188021 0.014229422
0.014174342 -0.023651514 -0.021977829 0.003198354 0.023992665 -0.025025705 0.0145094255 -0.043561798
0.019806994 -0.024229906 -0.038265068 0.03160481 -0.008204514 -0.034239914 0.0044923774 0.026833773
0.0049884394 -0.03175076 -0.021382678 -0.025544565 0.013620658 -0.05423312 -0.03689693 -0.06246804
-0.025927177 0.03694924 -0.005124649 -0.012452369 0.0021767144 -0.038682953 -0.022551503 0.03138128
-0.043014094 -0.045794006 -0.022595992 -0.05491736 -0.028950082 0.008635747 -0.017008537 0.01431594
-0.0015440146 -0.033866365 -0.03111775 0.0016788931 0.023846766 -0.03315052 0.023730831 -0.02680216
-0.044377144 0.0046272804 0.011745268 0.0038499846 0.023531368 -0.015325533 -0.009845324 -0.0056070387
0.008252048 -0.016621985 0.007960942 -0.0077278246 -0.042991236 0.02808272 -0.08546067 -0.0036906023
-0.037292182 -0.015922418 0.016881935 0.01130831 0.026149057 -0.022576755 0.010857936 0.0075434083
-0.06911792 -0.028774064 0.0074951826 -0.005265078 -0.023375016 -0.02022579 0.012145239 0.012323275
0.024879672 0.023026712 0.0011585678 -0.03782335 0.016195344 -0.023636092 0.00610914 -0.033172973
0.0098605165 -0.010393107 0.020927366 -0.012029588 0.018771052 -0.05460713 0.002116705 -0.04808773
-0.05126949 -0.047353514 -0.03600487 -0.021231478 0.007673039 0.0021336162 -0.016609635 0.010880414
-0.043850463 0.039440386 -0.030677214 -0.027365552 -0.018257469 -0.018410394 0.012136643 -0.018216234
0.029631807 -0.020112483 -0.024882609 0.0021038954 -0.016569111 0.022030938 -0.0023645228 0.02392483
-0.044666994 -0.015926545 -0.06142778 -0.052225668 -0.05105766 -0.04093988 -0.005271418 -0.040767528
-0.058560193 -0.058574703 -0.040491063 0.01048844 -0.03120108 -0.0013879061 -0.0041034054 0.024237625
-0.031194398 0.027433023 0.01476215 -0.016046153 -0.020715157 0.009666636 -0.0028489307 0.014241604
-0.04179398 -0.03445447 -0.008752255 -0.046395358 -0.035146862 0.009365403 -0.07034991 0.031221056
0.03752511 -0.017921075 -0.012700013 -0.007617896 -0.027506214 0.029973688 -0.038012214 -0.049160138
-0.02030537 -0.016174585 -0.0330902 -0.014725747 -0.017874163 0.027365072 -0.058756184 0.0014305627
0.008294926 -0.024016889 -0.05157216 -0.0030319174 0.001380438 -0.0043577035 -0.014207428 0.007865194
-0.0023946613 -0.01026559 0.006252738 0.020836225 -0.00038099362 -0.03324762 -0.0078075873 -0.023006296
0.0025339848 -0.018122718 -0.0095853135 -0.006013478 -0.016306404 -0.051475994 -0.050404847 -0.017526358
-0.043978665 -0.05332366 -0.060180325 -0.031702034 -0.05299384 -0.022743113 0.009083313 -0.05688207
-0.018058099 -0.022611484 -0.0027058467 0.018644454 -0.02177631 0.027312787 0.021621553 -0.047168855

hidden_layers.1.bias f4 [128]
00000000: 6d93 80bd bf74 5fbc 154f a4bd be7b bcbd
00000010: 47b7 fcbc 6451 d93c 4de5 cebc 512c 6f3e
00000020: a189 11be 809b a3bd 8de6 b2bd 7589 49be
00000030: 1f40 25bd 5f87 b3bd d9e6 8a3a 571d 0abd
00000040: cad0 443e 9f40 6bbd 3393 633d 4f33 98bd
00000050: d4ef 743b 4b1f f6bd 242a 02be 736a 6fbc
00000060: ed78 41bc 23c2 15be 256d 1dbc 956e 24bd
00000070: b555 2cbb fcbd f0bc adb4 07bd 68b2 76bd
00000080: 82ad 9c3b 0e8b dbbd b183 a6bc 9140 27bc
00000090: 6ea9 a8bd 6c6d 95bd 4077 eebc 43b9 08be
000000a0: 43bb 9ebc 5c1b d93b 6782 87bd 4805 5d3e
000000b0: 0e63 13be cfe0 d03d 7f38 32bd 3460 9cbd
000000c0: 64b2 4f3f 8947 c63b fd6d c5bd 9f26 18bd
000000d0: 1b73 893e 7c06 cfbc bd84 47bd fc74 db3e
000000e0: 7636 8ebd bbe6 1e3b f822 95bd 351e 3cbd
000000f0: 8e29 acbc 34a6 193d 8347 56bd 059a 5d3e
00000100: 8e7b 3cbd 1b67 2fbd ab86 49bd 730f f9bc
00000110: b335 c4bd 23be 41bd 7c97 63bd c7e7 693e
00000120: 7498 f4bc 5aca 1abc fe92 93bd e7c8 afbc
00000130: f415 68bb e465 2cbd b7d2 df3d 5d42 bbbd
00000140: 5da9 953c 09be 0f3d c59c 31bd 0014 37bd
00000150: e862 cabc ad25 37bb f95c 95bd f3a3 58bd
00000160: 12cd 9cbd 8dae 543a 87fb a6bb 3af2 44bd
00000170: 1b47 8e3d f51e 80bd 37aa b03c a1e1 f03d
00000180: d6ee f5bc cf78 ddbc a118 393d cf3b 84bd
00000190: a34a ebbb c2fd 48bc 821c 9c3e d317 26be
000001a0: 6817 81be 474c 9abd f49b c4bc 0a01 bcbc
000001b0: 5d7b 2abd d3b8 86bd 60ed 4ebe c656 cabe
000001c0: 3d99 893a ed62 113d 3638 02bc 6d82 7bbd
000001d0: 6bf3 18bd 97e1 a4bd 215b 4fbc 4d60 59bd
000001e0: 2cc0 26bd 9ee0 efbd f0a1 26bd 92ab 8fbd
000001f0: eb3c d53d 16f3 02be b486 5d3e b14e 26bd
-0.06278119 -0.013638674 -0.08022896 -0.092032894 -0.030849112 0.026528068 -0.025255824 0.23356749
-0.14212658 -0.07988644 -0.0873538 -0.19681342 -0.040344354 -0.08766054 0.0010597362 -0.033719387
0.19220272 -0.057434674 0.055560302 -0.07431661 0.0037374394 -0.120176874 -0.12711388 -0.014612782
-0.011808616 -0.14624839 -0.009608542 -0.04014452 -0.0026296203 -0.029387467 -0.03313129 -0.060228735
0.004781426 -0.10719882 -0.020326467 -0.010208265 -0.08235441 -0.07296261 -0.029109597 -0.13351922
-0.019376403 0.006625576 -0.06616669 0.21584046 -0.14393255 0.10199129 -0.04351091 -0.07635537
0.8113158 0.006051008 -0.09640119 -0.037146207 0.2684563 -0.025271647 -0.048710573 0.4286269
-0.06943981 0.0024246413 -0.072820604 -0.045927245 -0.021015909 0.03751202 -0.052314293 0.21640785
-0.04601627 -0.04282294 -0.049200695 -0.030402875 -0.09580555 -0.04730047 -0.05556439 0.22842322
-0.029857852 -0.009447658 -0.07205771 -0.021458102 -0.0035413476 -0.042089358 0.109288625 -0.09143517
0.018269235 0.03509334 -0.043362398 -0.044696808 -0.024705365 -0.002794604 -0.07293124 -0.05289073
-0.076563016 0.00081131683 -0.0050959024 -0.048082568 0.06947156 -0.062559046 0.02156554 0.11761785
-0.030021112 -0.027035145 0.045189504 -0.0645672 -0.0071805282 -0.012267532 0.304905 -0.16220026
-0.2521317 -0.0753408 -0.024000145 -0.022949714 -0.041621555 -0.06578221 -0.20207739 -0.39519328
0.0010497939 0.035494734 -0.007947972 -0.06140368 -0.037341516 -0.0805084 -0.012656004 -0.053070355
-0.040710613 -0.11712764 -0.04068178 -0.07015146 0.1041201 -0.12788042 0.21633416 -0.04060239

action_value.weight f4 [4, 128]
00000000: 9fe6 ae3d c156 f0be 2052 d23d 185f aabd
00000010: 32ad 6b3c 8098 cd3b 1f76 1f3e f694 233d
00000020: eea6 aabd 45b1 223e eac2 2b3d c8fb 70be
00000030: 36c6 90be a686 4e3e 8afe f5bd 2cd1 1fbd
00000040: 13a0 033e 916c 7f3d 2740 f0be c61c c9be
00000050: 0766 763e 88df 02bd bf3f a2be 9f19 43bc
00000060: c3f9 0d3d a7d8 6c3e 4cec 813d 04e1 b3bd
00000070: 528f 0ebe ee8e 413b aba5 0e3d 1e78 833e
00000080: cbcb 27bd 5970 e1be 57e8 643d a1a6 0dbd
00000090: b5e9 3bbd fd2b 39bd fafe 00bc 1032 31bd
000000a0: 55e8 44bd 38af 333e 7756 0f3f 00e9 213e
000000b0: 332f 763e 1a9d 973d fec8 30bc 3027 28bd
000000c0: cfcd 7c3d a289 93bd 00a8 5b3e ad78 963e
000000d0: 15e9 c23c 6f64 abbc 20c5 7cbd 3903 fc3d
000000e0: e7d8 b2bc bdd7 6bbd 138d e43d 7b8a fc3c
000000f0: aa29 98bc ea26 193e fd9f 033e 6190 143c
00000100: 9594 9d3d 416b bb3e b5e5 93bd 1115 123e
00000110: bc42 56bc 6987 2d3e a479 953d cf98 723c
00000120: f930 b33a ea0c 01ba 7e60 1c3d f5a0 f6bc
00000130: 0ee8 48bd ed54 8f3d 9c06 5a3c aeec adbc
00000140: 2351 ad3c e9bd fdbc 3a65 ab3d 3083 2dbe
00000150: 5f6a 05bf 0327 b4bd b77e ea3c e139 2bbe
00000160: a9c6 2abe c145 0dbd 6c22 69bd 03d6 42be
00000170: cab3 823d e71a 203e 523b 053e 9111 8a3d
00000180: 876b 2d3d a0c0 3b3e a05a d53d 05cb b13c
00000190: 8957 c9bc 0e21 843d 713e 943d 86ed 20be
000001a0: ca53 f7bd af91 8b3e 2f55 6bbc 6cd4 953e
000001b0: d4a7 8b3d e888 e2bd 35fa 11be e143 dbbe
000001c0: f189 1bbc 88bb 823d 982f 46bd 5d55 123e
000001d0: baac 043d b8be 9f3d 321b 4fbe ceaf 94bd
000001e0: b138 de3c 4dbe 9c3d a1e0 10bd 1d67 eb3b
000001f0: 382f 5a3e 923c 68be aee7 183e e4d6 e6bd
00000200: ae66 9f3d a9b5 0b3e cb21 0f3e c819 853e
00000210: cc8f 3abd 3585 823b cec3 4ebe 51f7 343e
00000220: 94d7 453e 1d06 a53d c3ec 8f3b 6d71 0b3e
00000230: 29b7 0f3e 7ee0 b1bb 82d8 5dbe 896b e23d
00000240: 0573 a83d daed c3bd 1084 c83e 0cc0 77be
00000250: ffa8 a63d b403 8d3e a58a 933e 494a 12bc
00000260: 93e0 2c3d 79e2 e5bd 506c c43c 3ae4 d1bc
00000270: 2e99 643e 064d 723d 84d6 073d 326b bc3e
00000280: da9e 33bc 07fc 5a3d 01bf 983d 0eb0 17bd
00000290: acc9 763e 0dd1 ca3c 7762 da3c cc50 a6bd
000002a0: a8d1 86bd 35e6 473d b940 f83e 6c01 113e
000002b0: dbf8 3e3e 37d5 b0be 1350 2c3d a861 a63e
000002c0: 6beb ce3d f8db b93d a788 aaba 53d2 ab3e
000002d0: 58f1 833d b30c 0bbd d01e 4f3d ac93 653d
000002e0: 103b a8bc cf87 123d 8f18 2ebe dcd4 7c3d
000002f0: 1600 dcbb 4fbc cb3d 664e 623e 0d78 83bc
00000300: 9220 a33c 19d2 af3e 5d3a 043b ed65 8e3e
00000310: a73d b2bb a443 743e b219 8d3d dd2a dd3c
00000320: 8345 793d 176a 8fbc 0105 853d ffb6 a93d
00000330: 4a64 4a3d 605b 49bd a441 93be 8efa c23e
00000340: c3eb 81bc e522 133c 98e2 553d 5f84 a33e
00000350: c6a3 763d 86dc ecbc f607 973d f1cf 133f
00000360: 0293 163e 9e85 aabd 09e8 f53b 873d b13d
00000370: 9bef 75bc 4ba8 9b3d c293 6b3e e877 3b3e
00000380: af87 953d 5464 013e 3c1b d93d 4538 9438
00000390: 8c80 843d 0eaa ffbb 52ec a73d 0063 783e
000003a0: d324 e13c dd16 183e efe4 243e 8989 1fbe
000003b0: 0a0a 5a3e 3d21 133e c535 873e f3f5 863d
000003c0: 14f9 ed3c 8aa8 4dbd 1b83 883d d56e e43d
000003d0: 27a0 b0be bb40 2d3e f7ec b4be 5820 693c
000003e0: ea12 073d 1423 f33d af99 7e3d 1536 85bd
000003f0: e493 153e eb66 6e3e fa34 523e 0fe2 f1bd
0.08540081 -0.46941188 0.1026957 -0.08318919 0.014384555 0.006274283 0.15572403 0.039936982
-0.083326206 0.15887935 0.04193393 -0.23533547 -0.28276223 0.20168552 -0.1201144 -0.03901784
0.12854032 0.062359396 -0.46923944 -0.39279765 0.24062358 -0.031951457 -0.3168926 -0.011907964
0.03466202 0.23129521 0.06343898 -0.08783153 -0.1392186 0.0029534656 0.034825962 0.2567758
-0.040965836 -0.44031027 0.05588564 -0.034582738 -0.045877177 -0.045207966 -0.007873291 -0.043260634
-0.04807313 0.1754731 0.5599131 0.15811539 0.24041443 0.074030116 -0.010790108 -0.041052997
0.061719712 -0.07203986 0.21450806 0.29388943 0.023792783 -0.020921914 -0.06171143 0.12305302
-0.021831943 -0.05757879 0.1115972 0.030827751 -0.018574554 0.14956251 0.12854 0.009067626
0.076943554 0.36605266 -0.072215475 0.14265849 -0.013077434 0.16946186 0.07298592 0.01480694
0.0013671211 -0.0004922884 0.03817796 -0.030106047 -0.04904943 0.0699862 0.01330724 -0.021231022
0.021156853 -0.030974345 0.08368917 -0.16944575 -0.52115434 -0.087965034 0.028624875 -0.16721298
-0.16677345 -0.03449035 -0.056917593 -0.19026951 0.06381948 0.15635262 0.1301091 0.06741632
0.042338874 0.183352 0.10417676 0.021703253 -0.024577873 0.06451617 0.07238472 -0.15715608
-0.12076528 0.27259585 -0.014363571 0.29263628 0.0681912 -0.11061269 -0.14255603 -0.42825225
-0.009493337 0.06383425 -0.048385233 0.14290376 0.032391287 0.078000486 -0.20225218 -0.072600946
0.027126642 0.076534845 -0.035370473 0.007183923 0.21307075 -0.22679356 0.14932129 -0.11271456
0.077832565 0.13643517 0.13977735 0.25996232 -0.04554729 0.0039831647 -0.20191881 0.17672469
0.19320518 0.08057807 0.004392238 0.13617487 0.14034714 -0.005428373 -0.21664622 0.11055667
0.08225063 -0.09566851 0.39163256 -0.24194354 0.08137702 0.27541888 0.28816715 -0.008928844
0.04220636 -0.11224837 0.023977429 -0.025621522 0.22324058 0.059155487 0.033163562 0.36800534
-0.010963166 0.05346301 0.07458306 -0.037033133 0.24100369 0.024757886 0.02665828 -0.081208795
-0.065829575 0.048803527 0.4848688 0.14160699 0.18649618 -0.3453767 0.042068552 0.3249638
0.10103496 0.09075159 -0.0013010696 0.33558902 0.06442517 -0.033947658 0.050566494 0.056049034
-0.020535976 0.03577405 -0.17001556 0.061726436 -0.0067138774 0.099480264 0.22100219 -0.016048456
0.019912992 0.3433998 0.0020176389 0.27812138 -0.0054394784 0.23853928 0.068896666 0.026997978
0.060857307 -0.017506642 0.06495095 0.08286857 0.04941205 -0.049159408 -0.28761017 0.38081783
-0.01585949 0.0089804875 0.05221805 0.3193693 0.06021478 -0.028913748 0.07374565 0.5773917
0.14704517 -0.08326267 0.0075044674 0.086543135 -0.01501074 0.07600459 0.23005584 0.1830746
0.0730127 0.12635928 0.10600898 7.067671e-05 0.06469831 -0.0078022545 0.081993714 0.24256516
0.02748338 0.14852472 0.16102956 -0.15579809 0.21292892 0.14368148 0.2640821 0.0658988
0.029049434 -0.05020956 0.066656314 0.11153952 -0.34497187 0.16919224 -0.3533704 0.014228903
0.032977022 0.11871925 0.062158283 -0.06504456 0.14607197 0.23281448 0.20528021 -0.118106954

action_value.bias f4 [4]
00000000: f5dc 453f 82ab 0d3f 75e9 123f 5328 533f
0.7729028 0.55339825 0.5738748 0.82483405

state_value.weight f4 [1, 128]
00000000: 2c8c 8b3d 7b61 00be 069f 58be 6fae 623e
00000010: 8ec9 323d af90 1e3e 2dbc 4abc 921d b13c
00000020: f306 89be f6ae c0bd 9e85 80be 41a6 a4be
00000030: ac14 113c 0a7a 21be e7c4 f83d d11f 883d
00000040: d30b 8c3c f41d 233d 05ec a1bd b934 7ebe
00000050: 9f65 d23e cf0a 89be 1faa 1dbe e7eb 463d
00000060: 4c7e 35bc 782b 47be c657 5fbd a202 0b3d
00000070: a051 06bf 0ee0 22bc ee93 a4ba fd1a 49be
00000080: 4b37 1f3d b61c aebe e44f be3c e428 3f3d
00000090: 804a dc3d 6db1 27bc 2a29 983c f9d2 c4bc
000000a0: 5394 0bbd a56c 923e a699 11be 7c48 bebd
000000b0: dabf 8d3e 94a4 323d a252 bc3c 9881 81be
000000c0: 6d21 413e 6e77 d13c d366 a0be bcb3 2abc
000000d0: 8808 593d dcf4 2fbd db89 4b3d 3636 be3d
000000e0: 7be4 a73c ccea 58bd ebc7 c53e 6871 773d
000000f0: ced4 8b39 a8e7 a03d d623 60be da58 2c3e
00000100: cf3f d13b bc70 8bbe d8be 6f3d 6e34 00be
00000110: 4231 36be 4fb1 833e e475 60bd 516e e53d
00000120: 1085 6abc 644a efbc f626 4c3d a4c2 d33c
00000130: 3194 9cbc efa6 403d 9d60 1a3e 23e5 9dbe
00000140: 6614 183d c7a1 f73d 7f5e 46bd 2943 963e
00000150: 6dfb febe 0202 96be 5e9c b8bd 927f 2abf
00000160: 44b7 273e 5938 2cbd e47f 9b3c fdb3 f8bc
00000170: 4917 1c3e 64e2 6e3c 5bce d23d 848f bb3d
00000180: f13f 05bd d870 373e 073f 4b3e 24b4 a0bd
00000190: 2e05 15bc 989c 75bd 5dce 563d 7460 7b3e
000001a0: fcb9 6cbd 7be7 90be 1c2a d33c ae6d 3dbe
000001b0: f51a 16bf 0dc4 063e 9092 57be 26c7 99be
000001c0: 727e a93c 4d73 ed3e 582e 55bd 0e39 053d
000001d0: 0116 f93c cc6b 263d fd1a 05be 1532 593d
000001e0: a635 15bd 0f0a 8ebe 65f2 8ebd 6e3f 27bd
000001f0: 2331 bbbd efda 8fbe 006b a4bd cce7 9a3d
0.06813845 -0.12537186 -0.21154413 0.22136854 0.04364925 0.1548488 -0.012373966 0.021620546
-0.26763114 -0.09408371 -0.25101942 -0.32158092 0.008855026 -0.1576921 0.12146931 0.066466935
0.017095482 0.039823487 -0.07906345 -0.248248 0.41093156 -0.2676606 -0.15396927 0.048564818
-0.011077475 -0.19450176 -0.054527067 0.033938058 -0.524683 -0.009941114 -0.0012556294 -0.19639201
0.03887109 -0.3400628 0.023231454 0.046669856 0.10756397 -0.010235173 0.018574316 -0.02402638
-0.034077 0.28598514 -0.14218768 -0.09291169 0.27685434 0.043613985 0.022988621 -0.25294185
0.18860407 0.025569644 -0.3132845 -0.010418829 0.05298665 -0.042958125 0.049692016 0.09287684
0.02049469 -0.052958295 0.38629088 0.060410887 0.00026670698 0.07856685 -0.2188867 0.16830769
0.0063857804 -0.27234447 0.058531612 -0.1252 -0.17792228 0.25721213 -0.05479993 0.11202682
-0.014313951 -0.029210277 0.049841844 0.025849648 -0.019113632 0.0470342 0.15075918 -0.3083888
0.03712883 0.120914035 -0.048429962 0.29348114 -0.49801198 -0.29298407 -0.090142 -0.66600907
0.16378504 -0.042045925 0.018981881 -0.030359263 0.15243258 0.014580343 0.102932654 0.09158233
-0.032531682 0.1791414 0.19848262 -0.07846859 -0.009095473 -0.059963793 0.052442897 0.24548513
-0.057794556 -0.28301606 0.025776915 -0.1849887 -0.58634883 0.13160725 -0.21052003 -0.3003475
0.020690177 0.4637703 -0.05204615 0.032525115 0.030406 0.040630147 -0.12998576 0.053026278
-0.036428116 -0.2774205 -0.06979827 -0.040831976 -0.091402315 -0.2809672 -0.08028221 0.07563743
